model/best_model_batch_greyscale_mnistSimpleCNN.pt (torch, 91598 bytes, 14 tensors)

features.0.weight f4 [32, 1, 3, 3]
0	0xbe95f821	-0.2929087
1	0x3d6a62d0	0.05722314
2	0x3e7bad8c	0.24577922
3	0xbea4c3ee	-0.32180732
4	0x3e300f09	0.17193235
5	0x3e157649	0.14595903
6	0x3e8a2106	0.2697832
7	0xbe676b3c	-0.225995
8	0x3e4e7625	0.20162256
9	0x3e644b52	0.22294357
10	0x3d8ab160	0.06772113
11	0xbe75a2e2	-0.23987916
12	0xbbb42298	-0.005497288
13	0xbe74ae78	-0.2389468
14	0xbe02daa9	-0.12778725
15	0xbdeb19a5	-0.11479501
16	0xbdc49fb5	-0.09600774
17	0xbe712b3c	-0.23551649
18	0x3ea77606	0.32707232
19	0xbe7f163d	-0.24910827
20	0x3e826cde	0.25473684
21	0x3e70a476	0.23500237
22	0xbe411b87	-0.18858157
23	0x3e290a67	0.16507874
24	0xbc76c758	-0.015062176
25	0xbc4dda54	-0.0125642605
26	0xba589669	-0.0008262159
27	0x3d31e299	0.04342899
28	0x3dda0a51	0.10646499
29	0x3cf0a957	0.029377623
30	0x3dda8cb9	0.10671372
31	0xbd1a8d09	-0.037732158
32	0xbd923864	-0.07139662
33	0xbe21d00e	-0.15802023
34	0x3e82a188	0.25513864
35	0x3e71ac3f	0.23600863
36	0xbd80296c	-0.062579006
37	0x3db9c13c	0.0907006
38	0xbd9ce00a	-0.076599196
39	0xbe913dae	-0.2836737
40	0x3e86eb20	0.2635126
41	0xbe69c466	-0.22828826
42	0x3e943a24	0.28950608
43	0x3e890e86	0.26768893
44	0x3e2c237c	0.16810411
45	0xbc44f7a6	-0.012021935
46	0x3e603746	0.21896085
47	0x3e340f2d	0.17583914
48	0xbe5f2729	-0.21792282
49	0x3e56dc8a	0.20982566
50	0x3c9010be	0.017586108
51	0x3e65e546	0.22450742
52	0xbbaddec5	-0.005306097
53	0x3d28998d	0.041162062
54	0xbe4900bb	-0.19629185
55	0xbd2bdc50	-0.041958153
56	0x3e411573	0.18855838
57	0x3d3b9111	0.045792643
58	0x3db079d4	0.08616987
59	0xbe512b3c	-0.20426649
60	0x3e9c34a4	0.30508912
61	0x3cdd4e5b	0.027014902
62	0x3e59c892	0.21267918
63	0x3e6f5863	0.2337356
64	0x3e7cf4d8	0.24702775
65	0xbe9f3018	-0.3109138
66	0xbe35e205	-0.17762001
67	0xbdba5eff	-0.0910015
68	0x3e353e9a	0.17699662
69	0xbe522788	-0.20522892
70	0x3df96b13	0.12178626
71	0xbe43e0ee	-0.19128773
72	0xbe05ccfc	-0.13066477
73	0xbe3f4503	-0.1867867
74	0xbe2de724	-0.16982704
75	0x3de9aeff	0.11410331
76	0x3da7fa9e	0.08202098
77	0xbe918db3	-0.2842842
78	0x3cd02bd6	0.025411528
79	0xbe50b0b7	-0.20379911
80	0xbe0ad9c8	-0.1355964
81	0x3e17234f	0.14759563
82	0x3e481bbd	0.19541831
83	0x3e2f828f	0.17139648
84	0x3d0980fa	0.033570267
85	0x3e1a3c5c	0.15062088
86	0xbe59447c	-0.21217531
87	0x3e93133d	0.28725615
88	0x3e2b0a50	0.16703153
89	0xbe8746c1	-0.26421168
90	0xbddedf1b	-0.10882398
91	0xbe73c4ec	-0.23805588
92	0xbe87abe5	-0.26498333
93	0x3ea725b7	0.32645962
94	0xbdce4495	-0.10071675
95	0x3e3a2211	0.18177058
96	0x3e6f1093	0.23346166
97	0xbe8e411a	-0.27784044
98	0xbe6777ad	-0.22604246
99	0x3e89295c	0.26789367
100	0x3e158850	0.1460278
101	0x3e1aa2a6	0.15101108
102	0xbc87375f	-0.016505895
103	0xbe1efe61	-0.15526725
104	0xbcaf01f9	-0.021363245
105	0xbe8e0e91	-0.27745488
106	0xbe0c6381	-0.13709833
107	0xbe2ade76	-0.16686425
108	0x3e360635	0.17775805
109	0xbd8768b6	-0.06611769
110	0x3dcaff2f	0.09911954
111	0x3b1009ec	0.002197857
112	0x3cdd3dc1	0.027006986
113	0x3e7e6e22	0.248467
114	0xbbcf4422	-0.0063252607
115	0x3e1deb0f	0.15421699
116	0x3e92f0a7	0.28699228
117	0x3c7e1d29	0.015509882
118	0x3e95bb6c	0.29244554
119	0xbcc70989	-0.024296539
120	0x3db5863f	0.08863496
121	0x3d0d3872	0.03447766
122	0x3d08a782	0.033362873
123	0xbde144be	-0.1099944
124	0x3dde066b	0.10841068
125	0x3d0510c5	0.032486696
126	0x3d9b23b9	0.07575173
127	0x3e8821b2	0.26588207
128	0x3d31b549	0.043385778
129	0xbda74a9b	-0.08168527
130	0x3e53239a	0.2061905
131	0xbe3dc26a	-0.18531194
132	0xbe580761	-0.21096565
133	0xbe30ee2f	-0.1727836
134	0x3e02fd6f	0.1279199
135	0x3df4a1d8	0.11944932
136	0x3e92bff8	0.28662086
137	0xbe8a7aa6	-0.27046698
138	0xbe88d31d	-0.26723567
139	0x3e2c2b8e	0.1681349
140	0xbe3883a3	-0.18018965
141	0x3d5a3f53	0.053283047
142	0x3e1983f3	0.14991741
143	0xbe981c0b	-0.29708895
144	0x3e274170	0.16333556
145	0x3d97b670	0.07407844
146	0x3e994be9	0.29940727
147	0x3d1fd8df	0.039025184
148	0xbe4c03d7	-0.1992334
149	0x3e3725c0	0.17885494
150	0x3e5a1cca	0.21300045
151	0xbd8cdc0b	-0.06877907
152	0xbbb66274	-0.0055659357
153	0xbea7419c	-0.32667243
154	0xbea4c3d3	-0.32180652
155	0xbe9b1ea0	-0.30296803
156	0x3e70775e	0.23483035
157	0xbdf6302a	-0.12020905
158	0x3e3ee1b6	0.1864079
159	0x3e80c46a	0.25149852
160	0x3e5c3d13	0.21507673
161	0x3e62a0f6	0.22131714
162	0xbb8aa17e	-0.004230677
163	0x3e856590	0.2605405
164	0xbe91a166	-0.2844345
165	0xbdebf6bc	-0.1152167
166	0x3e5572af	0.2084453
167	0xbd475353	-0.04866345
168	0xbe58981a	-0.21151772
169	0xbd496254	-0.04916604
170	0x3e6b02b6	0.22950253
171	0xbe4898a9	-0.19589485
172	0xbe91d549	-0.28483036
173	0x3eb1f430	0.34756613
174	0x3e3e3c89	0.1857778
175	0x3e520cca	0.20512691
176	0xbd029731	-0.03188247
177	0x3dba10da	0.090852454
178	0x3e33c217	0.17554508
179	0x3e33826d	0.17530222
180	0xbdd1eb08	-0.10249907
181	0x3e9ae1a3	0.30250272
182	0xbd5d62d8	-0.054049343
183	0xbdbd4f74	-0.0924367
184	0x3e60d89d	0.21957631
185	0xbe830c0e	-0.25595134
186	0x3cfc9f6d	0.030837739
187	0x3e50e304	0.203991
188	0xbe5f2ee2	-0.21795228
189	0xbd97a25c	-0.074040145
190	0xbd4371ca	-0.04771594
191	0x3ba85fbd	0.005138366
192	0x3e7bae22	0.24578145
193	0xbd3d31d8	-0.046190113
194	0x3ea37566	0.31925505
195	0x3dafea82	0.08589651
196	0xbd18fccf	-0.037350472
197	0x3dcdc2a7	0.100468926
198	0xbe7fd3b6	-0.24983105
199	0xbeae5ea7	-0.3405659
200	0x3c30cf42	0.010791602
201	0x3d1c9589	0.038228545
202	0x3e894953	0.26813754
203	0xbe3b2b7f	-0.18278311
204	0x3db4cdac	0.08828291
205	0x3d810b2a	0.063009575
206	0x3dd32996	0.10310666
207	0xbe7ff492	-0.2499564
208	0xbb5ffde0	-0.003417842
209	0x3d9b4a94	0.07582584
210	0x3d9365f9	0.07197184
211	0xbe0254b9	-0.12727632
212	0xbe88046a	-0.26565868
213	0xbcefa1e5	-0.029252002
214	0xbde16253	-0.11005082
215	0x3e3510bd	0.17682166
216	0xbe0f1c8b	-0.13975732
217	0xbe3f939d	-0.18708654
218	0xbe83aa86	-0.25716037
219	0x3e1d6a3f	0.15372561
220	0x3d822cc7	0.06356197
221	0x3e3647f1	0.17800881
222	0x3e31bff7	0.17358385
223	0xbe6d470c	-0.23171633
224	0xbd8b232d	-0.067938186
225	0xbca28782	-0.019840006
226	0xbe32dc5a	-0.1746687
227	0xbe8ce492	-0.27518135
228	0xbdd8574e	-0.10563527
229	0xbbc92d8c	-0.006139463
230	0x3dd056ff	0.10172843
231	0x3d15f86a	0.03661386
232	0x3dc32bd5	0.09529845
233	0x3d081db1	0.03323144
234	0x3dc19f55	0.09454218
235	0xbd9b0c11	-0.07570661
236	0xbe234030	-0.15942454
237	0xbe1c4c4f	-0.15263484
238	0xbd84687c	-0.06465241
239	0x3e705ae5	0.23472174
240	0x3e327ef0	0.17431235
241	0xbe4a8f19	-0.1978115
242	0x3df30e56	0.11867969
243	0xbb73b2bb	-0.003718539
244	0xbe0347ab	-0.12820308
245	0xbe83e6da	-0.25762063
246	0xbe7970fe	-0.2435951
247	0x3e2a5ccc	0.16636962
248	0x3e6a63ed	0.22889681
249	0xbe5dd5de	-0.21663615
250	0xbb7284db	-0.0037005458
251	0xbc509ef2	-0.012733208
252	0xbe09d7dd	-0.13461252
253	0xbea7b280	-0.32753372
254	0x3dcb371a	0.09922619
255	0x3e9b8d05	0.30381027

features.0.bias f4 [32]
0	0x3dc93506	0.098245665
1	0x3e8baf77	0.27282307
2	0x3d664013	0.05621345
3	0x3cfa725b	0.030572107
4	0x3ea77898	0.32709193
5	0x3defb3bc	0.117042035
6	0x3d88ba07	0.06676107
7	0x3e7108dd	0.23538537
8	0xbe458df7	-0.19292437
9	0xbd569eb8	-0.05239746
10	0x3e8ff209	0.28114346
11	0xbdc8c690	-0.09803498
12	0x3ea1a7f5	0.31573454
13	0xbe8d48fe	-0.2759475
14	0xbe5bdf3e	-0.21471879
15	0x3d8123c3	0.06305649
16	0x3d4f6aaf	0.05063885
17	0xbe28f888	-0.16501057
18	0x3e14a205	0.1451493
19	0x3e7d1f4f	0.24718975
20	0x3e382ed0	0.17986608
21	0x3d68257a	0.056676365
22	0xbdfe30e7	-0.12411671
23	0x3d94d632	0.07267417
24	0xbe9dc833	-0.30816802
25	0x3c5f145e	0.013615696
26	0x3e4e413e	0.20142075
27	0x3d9465cf	0.07245981
28	0xbe9ba7ac	-0.3040136
29	0xbe5ce14c	-0.21570319
30	0x3bfc82fd	0.0077060447
31	0x3e5533a9	0.20820488

features.1.weight f4 [32]
0	0x3f80675d	1.0031544
1	0x3f880b7f	1.0628508
2	0x3f7a3fb1	0.97753435
3	0x3f75a842	0.95959866
4	0x3f795958	0.9740195
5	0x3f7e591c	0.9935472
6	0x3f792a27	0.97329944
7	0x3f7dbb50	0.9911394
8	0x3f86c33a	1.0528328
9	0x3f80a79f	1.0051154
10	0x3f88f08f	1.0698413
11	0x3f8bcc4c	1.0921721
12	0x3f75d5f4	0.9602959
13	0x3f7c9f35	0.9868043
14	0x3f76bce9	0.96382004
15	0x3f805d25	1.0028425
16	0x3f73d6fa	0.95249903
17	0x3f821d0a	1.0165112
18	0x3f7b45c0	0.98153305
19	0x3f77fd96	0.96871316
20	0x3f7d0e79	0.9885021
21	0x3f76cba2	0.9640447
22	0x3f826a44	1.018868
23	0x3f8807a9	1.0627338
24	0x3f88ba83	1.0681919
25	0x3f8a42bc	1.0801616
26	0x3f7a279e	0.977167
27	0x3f86b92c	1.052526
28	0x3f7b3961	0.9813443
29	0x3f8bca67	1.0921143
30	0x3f7b0d63	0.980673
31	0x3f865f7b	1.0497888

features.1.bias f4 [32]
0	0xbce89c30	-0.028394789
1	0x3c31cfc0	0.010852754
2	0xbbaabf3b	-0.0052107847
3	0xbd6348dd	-0.05548941
4	0xbd1cb923	-0.038262498
5	0xbd4b0c20	-0.04957211
6	0xbce35b33	-0.027753448
7	0xbd124ea5	-0.035719533
8	0x3d0c2666	0.034216307
9	0xbd30d372	-0.0431704
10	0xb929f25d	-0.00016207383
11	0x3c10e41a	0.008843446
12	0xbcff9357	-0.031198187
13	0xbca616bd	-0.020274514
14	0xbcd9c023	-0.026580876
15	0xbc196260	-0.009361833
16	0xbcdcc7a6	-0.026950669
17	0xbd910af4	-0.07082167
18	0xbd585589	-0.052815948
19	0xbd75768e	-0.059927516
20	0xbd74dcc0	-0.059780836
21	0xbd08885e	-0.033333175
22	0x3bbad9a9	0.0057022166
23	0x3cbd08ea	0.02307554
24	0x3b7cf0f7	0.0038595775
25	0x3cdd1379	0.026986824
26	0xbd03c736	-0.032172404
27	0xba1acf02	-0.00059054804
28	0xbd6bac5d	-0.057537425
29	0x3c685106	0.014179474
30	0xbd520823	-0.05127729
31	0x3cb79323	0.022409027

features.1.running_mean f4 [32]
0	0x3e01fdf1	0.12694527
1	0x3e3da4c4	0.18519884
2	0x3deba21e	0.11505531
3	0x3db5cc0c	0.088768095
4	0x3ec083ca	0.37600547
5	0x3e442374	0.1915415
6	0x3deb850a	0.114999846
7	0x3e5a0a8d	0.21293087
8	0xbe96c071	-0.29443696
9	0x3ccb51da	0.024819303
10	0x3e6863be	0.22694299
11	0xbdf9cf71	-0.121977694
12	0x3ed79a2d	0.42109814
13	0xbe638789	-0.22219671
14	0xbe53db93	-0.2068923
15	0x3d135d27	0.03597751
16	0x3e04f53b	0.12984173
17	0xbe249897	-0.16073833
18	0x3e12e351	0.14344527
19	0x3ea59283	0.32338342
20	0x3e3c2cc0	0.18376446
21	0x3df4e6aa	0.11958058
22	0xbe16ab39	-0.14713754
23	0x3ca44d3c	0.02005636
24	0xbeb02b7a	-0.3440817
25	0xbcb6d741	-0.022319438
26	0x3e4af63b	0.19820492
27	0x3c99615a	0.018723179
28	0xbe9f9274	-0.31166422
29	0xbe8bb5a9	-0.27287033
30	0x3d77cea7	0.060499813
31	0x3dc956bc	0.098309964

features.1.running_var f4 [32]
0	0x3d0b2740	0.03397298
1	0x3d466652	0.048437424
2	0x3ca7a4a4	0.020464249
3	0x3c93af3d	0.018027896
4	0x3d04d29d	0.03242742
5	0x3ce875e6	0.02837653
6	0x3cb2fb9c	0.021848492
7	0x3c95f2a7	0.018304182
8	0x3d365508	0.044514686
9	0x3d3d0921	0.046151284
10	0x3d1407b1	0.036140148
11	0x3d0901ab	0.033448856
12	0x3d390e61	0.04517973
13	0x3c821875	0.015880803
14	0x3c9168a3	0.01775009
15	0x3cb0698a	0.0215347
16	0x3cd76b24	0.026296206
17	0x3d82e60a	0.06391533
18	0x3c630d80	0.013858199
19	0x3d2d5cc4	0.042324796
20	0x3c86866d	0.016421521
21	0x3cab4d26	0.02091081
22	0x3cc19657	0.023631258
23	0x3c903b7e	0.017606493
24	0x3c932253	0.017960703
25	0x3c880338	0.016603097
26	0x3c07e9ae	0.00829546
27	0x3cb79d75	0.022413949
28	0x3c840ed5	0.016120354
29	0x3cfaf603	0.030634886
30	0x3cfa99cb	0.030590912
31	0x3d68b2e1	0.056811217

features.4.weight f4 [64, 32, 3, 3]
0	0xbd219823	-0.03945173
1	0xbd205fc3	-0.039153825
2	0x3cdf230d	0.027238393
3	0xbb58da0f	-0.0033088957
4	0x3cc7d7db	0.02439492
5	0xbc44804f	-0.011993482
6	0x3b08698b	0.0020814862
7	0xbd283c4a	-0.04107312
8	0xbd1d4251	-0.038393322
9	0xbd918b27	-0.07106619
10	0x3db95dd6	0.09051101
11	0x3ca3a39a	0.019975472
12	0xbd8357dc	-0.06413242
13	0xbcb693c2	-0.022287253
14	0xbd988a16	-0.07448213
15	0x3d940513	0.0722753
16	0xbc6873bf	-0.014187752
17	0x3c30ed76	0.010798803
18	0xbac9f901	-0.0015409292
19	0xbcb5ab56	-0.022176426
20	0xbcb5e7f5	-0.022205332
21	0xbc02a860	-0.007974714
22	0xb925deda	-0.00015818645
23	0xbd3a81c1	-0.0455339
24	0xbd0a4b77	-0.033763375
25	0xbbd013e2	-0.0063500265
26	0xbd1ddba2	-0.038539536
27	0x3b336eb0	0.0027379207
28	0xbd44307b	-0.047897797
29	0x3ce4ed2d	0.027945125
30	0x3d57c98a	0.052682437
31	0xb93d33c3	-0.00018043727
32	0xbd5dda94	-0.05416353
33	0xbce5d245	-0.028054366
34	0x3c907141	0.017632129
35	0xbd49c158	-0.049256653
36	0x3cbdf74a	0.023189206
37	0x3c9a9868	0.018871501
38	0xbd6afeab	-0.057371777
39	0xbc9ce73c	-0.01915323
40	0x3cceed0d	0.025259519
41	0xbc951268	-0.018197253
42	0xbdad905b	-0.08474799
43	0xbd244bc5	-0.040111322
44	0x3d099196	0.033586107
45	0xbcea0c8d	-0.028570438
46	0x3c35eec6	0.011104291
47	0xbbe9c484	-0.007134022
48	0xbbabeebe	-0.005246966
49	0x3ce5b2cb	0.028039357
50	0xbd233629	-0.039846573
51	0x3c87841d	0.016542489
52	0x3cae4936	0.021275144
53	0xbd67af56	-0.056563698
54	0xbd61142d	-0.05495088
55	0x3b94a08f	0.0045357416
56	0xbcfcf694	-0.030879296
57	0xbcb172e1	-0.021661224
58	0x3d0d6a93	0.034525465
59	0xbc5fc220	-0.013657123
60	0xbd308ecb	-0.043104928
61	0x3d03bc49	0.032161985
62	0xbd46d173	-0.04853959
63	0xbd2c06c8	-0.041998655
64	0xbd94efd0	-0.07272303
65	0xbda92676	-0.08259289
66	0x3d668e0b	0.056287806
67	0x3d47e62c	0.048803493
68	0x3cee5039	0.029090988
69	0xb967845a	-0.00022079182
70	0xbd4eefe8	-0.05052176
71	0x3d1a9a62	0.037744887
72	0x3cb53aed	0.022122825
73	0x3dd86b63	0.105673574
74	0xbcfacc7e	-0.030615088
75	0x3c84b893	0.016201293
76	0xbd32f9ce	-0.043695264
77	0xbc49f474	-0.012326349
78	0xbcbceb6f	-0.023061482
79	0x3e18adbb	0.14910023
80	0x3dd936e1	0.106061704
81	0xbd15f4b3	-0.036610316
82	0xbd43e6f3	-0.047827672
83	0x3c61fd20	0.01379326
84	0xbd2b3e4e	-0.041807465
85	0xbce0b5d3	-0.02743045
86	0xbd65a2cf	-0.05606347
87	0xbd890ccc	-0.06691894
88	0xba940f98	-0.0011296151
89	0xbb04ed20	-0.002028294
90	0x3d28d980	0.04122305
91	0x3bdc7b86	0.0067285923
92	0x3c4cce40	0.012500346
93	0xbd6a384c	-0.057182595
94	0x3d6a06b8	0.057135314
95	0x3d118cf0	0.0355348
96	0x3cca28d4	0.024677671
97	0x3d0bd6fc	0.034140572
98	0xb9b8dac2	-0.00035258202
99	0xbdb5a930	-0.088701606
100	0xbdb669a3	-0.08906867
101	0xbaaec815	-0.0013334776
102	0x3cf3155b	0.029673269
103	0xbd0cd5f8	-0.034383744
104	0xbaed682e	-0.0018112713
105	0xbb9f55e3	-0.0048625334
106	0x3ca444d3	0.02005235
107	0x3d07b1c4	0.033128515
108	0xbd02d1a5	-0.031938214
109	0xbd3b725e	-0.045763366
110	0xbb00f50c	-0.001967731
111	0xbd43ab10	-0.04777056
112	0x3d07694a	0.033059396
113	0xbc9e001e	-0.019287165
114	0xbd4f77ed	-0.05065148
115	0xbd1909da	-0.03736291
116	0x3d84129e	0.064488634
117	0xbcbc7418	-0.023004577
118	0x3cb24c94	0.02176503
119	0x3c90a544	0.01765693
120	0x3be0ce6d	0.0068605454
121	0x3d5229de	0.05130946
122	0x3d1a322e	0.03764551
123	0x3a1c41f0	0.0005960753
124	0xbcb1ee12	-0.021719966
125	0x3c0a2c42	0.008433403
126	0xbddda3ac	-0.108222336
127	0xbd0751ef	-0.033037122
128	0xbd56ecf4	-0.05247207
129	0x3cd6676f	0.026172368
130	0x3cd9b6c0	0.0265764
131	0x3cc84ea7	0.024451567
132	0xbd081d49	-0.033231054
133	0x3d067cba	0.032833792
134	0xbd10f595	-0.035390455
135	0xbd0b05ca	-0.033941068
136	0xbd38ede9	-0.045148764
137	0xbd8f7f62	-0.07006718
138	0x3a105ac8	0.00055066915
139	0x3c82a2cd	0.01594677
140	0x3cd2b4ef	0.025721041
141	0x3c1a14b1	0.009404347
142	0x3c001ae3	0.00781891
143	0xba1ec991	-0.00060572574
144	0xbdb0a252	-0.0862471
145	0xbd65ee79	-0.05613563
146	0xbc76779a	-0.015043164
147	0xbd53fc59	-0.05175433
148	0x3cf0b25b	0.029381922
149	0x3d15cc39	0.036571715
150	0xbcee270d	-0.029071355
151	0xbcafe0cf	-0.021469502
152	0x3d4c24b1	0.04983968
153	0x3ce376ef	0.027766673
154	0x3d68fcbf	0.056881662
155	0xbcf4a0cf	-0.029861836
156	0x3d18a136	0.037263118
157	0x3bb00edf	0.0053728665
158	0x3c01c2b5	0.007919957
159	0xbdc349c4	-0.09535554
160	0xbdecf92e	-0.11570965
161	0x3cfbebe4	0.03075213
162	0x3cace566	0.02110548
163	0xbd961160	-0.07327533
164	0xbd09589c	-0.03353177
165	0x3cb2b004	0.021812446
166	0x3cf446a8	0.029818848
167	0xbd8d59ab	-0.069018684
168	0xbb11055d	-0.002212844
169	0x3cbf41a3	0.023346728
170	0x3d4393b1	0.04774827
171	0xbc18c307	-0.009323842
172	0x3d3ac7ad	0.045600582
173	0xbd4e61c5	-0.05038621
174	0x3d383189	0.044969115
175	0xbd0f2aa3	-0.03495277
176	0x3ca90248	0.02063097
177	0xbd41eb78	-0.0473437
178	0xbd8046c8	-0.062635005
179	0xbb193bd3	-0.0023381605
180	0xbcf90866	-0.030399512
181	0xbcf5aa68	-0.029988483
182	0xbd012cd6	-0.0315369
183	0xbbfeacaa	-0.007772048
184	0xbd42cb80	-0.047557354
185	0xbd9049c4	-0.0704532
186	0x3c9369c9	0.017994778
187	0xbcde97ec	-0.027172051
188	0xbd965049	-0.07339532
189	0xbd22ec45	-0.039776105
190	0x3d28053b	0.041020613
191	0xbd0edcfe	-0.034878723
192	0x3ccd0f25	0.025031636
193	0x3b852edf	0.0040644254
194	0xbca56369	-0.020189004
195	0x3c60d1a4	0.013721857
196	0x3c459cef	0.012061342
197	0x3d3ee429	0.04660431
198	0x3d49abcb	0.0492361
199	0x3d878c48	0.066185534
200	0xbcfcc288	-0.030854478
201	0x3c4500df	0.0120241335
202	0x3d3777db	0.044792037
203	0xbca27779	-0.01983236
204	0xbd09860f	-0.033575114
205	0xbda41b99	-0.08013076
206	0x3d330c55	0.043712933
207	0x3c0dff1a	0.008666778
208	0x3bf8e21e	0.0075953146
209	0xbc9fbce3	-0.019499248
210	0x3d00f683	0.031485092
211	0xbc811e14	-0.015761413
212	0xbdb1782b	-0.08665498
213	0x3c92c05f	0.017913995
214	0x3d05b8b6	0.032646857
215	0xbc2a4b62	-0.010393949
216	0xbd0b3310	-0.033984244
217	0x3d34b33b	0.04411624
218	0xbcd47bce	-0.02593794
219	0xbc77d1cb	-0.015125702
220	0x3d7109c0	0.05884719
221	0x3c59dc7b	0.013297196
222	0x3cbfe19d	0.02342301
223	0x3d4f1230	0.050554454
224	0x3d88ac23	0.066734575
225	0x3c522e46	0.012828415
226	0x3db18578	0.08668035
227	0xbd1e0db3	-0.038587283
228	0xbc9c3c93	-0.019071853
229	0xbbe280ad	-0.006912312
230	0xbc484ae2	-0.012224885
231	0xbd6180ba	-0.055054404
232	0xbc82e3c4	-0.015977748
233	0x3d7fd588	0.0624595
234	0x3ce3d6d2	0.027812395
235	0x3d2483ef	0.040164884
236	0x3d5e5ff7	0.054290738
237	0xbcf07ccd	-0.029356385
238	0x3ccfda66	0.025372695
239	0x3d8e6211	0.069522984
240	0x3be92242	0.0071146796
241	0xbd8128e0	-0.063066244
242	0xbcf18530	-0.029482454
243	0x3c73b624	0.014874969
244	0x3d9a04dc	0.07520458
245	0xbcab2184	-0.020890005
246	0xbd4b391d	-0.049615014
247	0xbcbe7804	-0.023250587
248	0xbd024cd9	-0.03181157
249	0x3cc5dbb1	0.024152609
250	0xbce77abb	-0.028256765
251	0x3bf411d3	0.007448414
252	0x3ba3129e	0.0049765846
253	0xbcb83e3b	-0.022490611
254	0x3d10ed4d	0.035382558
255	0xbc30d3c0	-0.010792673

features.4.bias f4 [64]
0	0x3d1b780c	0.037956282
1	0x3d80d55c	0.06290695
2	0x3d0b74fa	0.034047104
3	0x3d30e65f	0.04318845
4	0x3d02011a	0.03173933
5	0x3ca5c18b	0.02023389
6	0xbd42ca39	-0.047556136
7	0xbc89c1fa	-0.016816128
8	0xbd4ea9f6	-0.050455056
9	0x3c646523	0.0139401285
10	0xbd52f0c3	-0.05149914
11	0xbb99ff94	-0.0046996567
12	0x3d1f1086	0.038834117
13	0x3ccdbc8b	0.025114318
14	0xbc254c88	-0.010089047
15	0x3cee9b87	0.029126896
16	0x3c2ea69c	0.01065984
17	0x3ce619f8	0.028088555
18	0xbd03547c	-0.032062992
19	0xbb877297	-0.004133533
20	0x3cee11db	0.029061249
21	0x3c89c9c0	0.016819835
22	0x3c449abc	0.011999782
23	0xbcf06078	-0.029342875
24	0xbcc896b3	-0.024485921
25	0xbd57cf67	-0.05268803
26	0x3d3521f1	0.044221822
27	0xbcca335d	-0.024682695
28	0xbbcdecdd	-0.00628434
29	0xbd3af51d	-0.045643914
30	0xbc9077f8	-0.01763533
31	0x3d3475d7	0.044057693
32	0x3c686719	0.014184737
33	0xbd70816a	-0.05871717
34	0x3d4f5234	0.050615504
35	0x3d3081e6	0.04309263
36	0xbd006ebf	-0.031355616
37	0x3d2f836d	0.042849947
38	0x3cb4fadf	0.02209228
39	0x3cc9f942	0.024654988
40	0x3c67412d	0.01411466
41	0xbd2120a5	-0.039337773
42	0x3c3ae8bd	0.011408028
43	0xbcb9a811	-0.022663148
44	0x3d77faaf	0.060541805
45	0x3c871e73	0.016494012
46	0xbd3d701a	-0.046249487
47	0x3cd0ff7a	0.025512446
48	0x3bf72b88	0.007543031
49	0xbd114178	-0.035462826
50	0x3bea9bdd	0.0071596936
51	0x3c1cae6a	0.009563068
52	0x3d20925c	0.03920208
53	0xbd542587	-0.0517936
54	0xbc450168	-0.012024261
55	0x3d2534ae	0.040333442
56	0x3c3c9890	0.011510983
57	0x3cdd0899	0.026981639
58	0x3c7b0df6	0.015323153
59	0x3c59f285	0.01330245
60	0xbc258959	-0.010103547
61	0xbd4d9996	-0.0501953
62	0xbd63ceaa	-0.055617012
63	0x3d34d900	0.04415226

features.5.weight f4 [64]
0	0x3f7e17d1	0.9925509
1	0x3f80ebbf	1.0071944
2	0x3f7c5ec7	0.9858212
3	0x3f7d2948	0.98891115
4	0x3f818e7b	1.0121607
5	0x3f811237	1.0083684
6	0x3f7e3dd4	0.9931309
7	0x3f808860	1.0041618
8	0x3f7d3b4d	0.9891861
9	0x3f7ec3f2	0.9951774
10	0x3f7eb0b4	0.9948838
11	0x3f815ee2	1.0107081
12	0x3f7e1c2f	0.99261755
13	0x3f7ea888	0.9947591
14	0x3f8131e6	1.0093353
15	0x3f7f07eb	0.99621457
16	0x3f7d2142	0.9887887
17	0x3f7d2015	0.9887708
18	0x3f80cc23	1.0062298
19	0x3f8142ae	1.0098474
20	0x3f7d4455	0.9893239
21	0x3f7fcafb	0.999191
22	0x3f7e9b67	0.99455875
23	0x3f81b7a6	1.013417
24	0x3f818383	1.0118259
25	0x3f7c78ae	0.9862164
26	0x3f7fc2bb	0.9990651
27	0x3f7e6cef	0.9938497
28	0x3f8043a8	1.0020647
29	0x3f7d00b4	0.988292
30	0x3f7ec972	0.9952613
31	0x3f806cfc	1.0033259
32	0x3f8153e9	1.0103732
33	0x3f7cdadd	0.9877146
34	0x3f7f007f	0.9961013
35	0x3f7f29bd	0.9967306
36	0x3f8155b9	1.0104285
37	0x3f7fd31f	0.9993152
38	0x3f80dd0b	1.0067457
39	0x3f7e0d33	0.9923889
40	0x3f7e978e	0.99450004
41	0x3f812d4d	1.009195
42	0x3f81415c	1.0098071
43	0x3f8055f1	1.0026227
44	0x3f805d44	1.0028462
45	0x3f80f423	1.0074505
46	0x3f7ff53e	0.99983585
47	0x3f81bee0	1.0136375
48	0x3f8074ec	1.0035682
49	0x3f814a7d	1.0100857
50	0x3f7dcb07	0.9913792
51	0x3f7d7bd4	0.9901707
52	0x3f8109ba	1.0081093
53	0x3f7db35f	0.99101824
54	0x3f80f0a9	1.0073444
55	0x3f812b01	1.0091249
56	0x3f816ae9	1.0110751
57	0x3f7d7612	0.99008286
58	0x3f81d078	1.0141745
59	0x3f7be90d	0.9840248
60	0x3f805af8	1.0027761
61	0x3f7eaa1c	0.99478316
62	0x3f7f44b1	0.9971419
63	0x3f81133a	1.0083992

features.5.bias f4 [64]
0	0xbc7662ac	-0.015038174
1	0x3a5a904c	0.0008337542
2	0xbc7e53ee	-0.01552294
3	0xbc994391	-0.018708976
4	0x3ba1ab59	0.0049337563
5	0x3b410b8f	0.0029456352
6	0xbc4a2902	-0.012338879
7	0x3bcb0c95	0.0061965683
8	0xbc5becc5	-0.0134231495
9	0xbbd260fa	-0.006420252
10	0xbc558ebd	-0.01303452
11	0x3b5cf2a3	0.0033713959
12	0xbc8f06bf	-0.017459271
13	0xbc63cb01	-0.01390338
14	0x3c53a228	0.012917079
15	0xbc3cc78d	-0.011522186
16	0xbc8fb854	-0.01754395
17	0xbc217b5f	-0.009856074
18	0xba99a5c7	-0.0011722379
19	0x3bfef498	0.0077806227
20	0xbc891a46	-0.016736161
21	0xbbf2114f	-0.0073873173
22	0xbc6f7a35	-0.014616539
23	0x3c1756e6	0.009237027
24	0xb8ae8c74	-8.323128e-05
25	0xbc82f556	-0.015986126
26	0xbc58771f	-0.013211994
27	0xbc0910f6	-0.00836586
28	0xbb1f2004	-0.0024280557
29	0xbc39f46f	-0.011349781
30	0xbbb45cf6	-0.005504246
31	0x3a898520	0.0010491945
32	0x3b735e17	0.003713494
33	0xbc8b18a0	-0.016979516
34	0xbbf78956	-0.0075542135
35	0xbc182933	-0.009287166
36	0x3b53bf24	0.0032309974
37	0xbbebcbd2	-0.007195928
38	0x3b04ec1d	0.0020282336
39	0xbc76095d	-0.015016881
40	0xbc1e3d6d	-0.0096582
41	0xbb9fbede	-0.004875048
42	0x3c0ab189	0.008465179
43	0x3b2248ed	0.0024762705
44	0x38b7bb7d	8.7610424e-05
45	0x3b936822	0.0044984976
46	0xbc128208	-0.008942135
47	0x3b81ef96	0.0039653284
48	0xbab8c397	-0.0014096376
49	0x3bc6780b	0.0060567907
50	0xbcab0855	-0.020877996
51	0xbc656ce8	-0.014003016
52	0x3b95e2fd	0.0045741783
53	0xbc87e197	-0.016587062
54	0x3c00258d	0.007821453
55	0x3be78fe8	0.0070667155
56	0x37849d62	1.5808913e-05
57	0xbc7ba066	-0.015358066
58	0x3bde43cc	0.0067829844
59	0xbc57e163	-0.013176295
60	0xbb83d763	-0.004023479
61	0xbc325fdf	-0.010887115
62	0xbbf68ef5	-0.007524366
63	0x3b884530	0.0041586384

features.5.running_mean f4 [64]
0	0xbf39a836	-0.72522295
1	0x3e4c485c	0.19949478
2	0xbf2853d0	-0.6575289
3	0x3e57bc45	0.21067913
4	0x3e1d6cdd	0.1537356
5	0x3ef5dc62	0.480197
6	0xbe4bc5f0	-0.19899726
7	0x3ee1a553	0.44071445
8	0xbeef2b80	-0.46712875
9	0xbec8ee0e	-0.3924412
10	0xbdfaf4f5	-0.12253753
11	0xbeda032f	-0.42580554
12	0xbf0ec7c5	-0.55773574
13	0xbf80a0ea	-1.0049107
14	0xbd8e44f7	-0.06946748
15	0x3f46ca54	0.7765248
16	0xbf376bbd	-0.7164877
17	0x3d421f78	0.047393292
18	0xbec1085a	-0.37701684
19	0x3f7d8306	0.9902805
20	0xbf49e723	-0.7886831
21	0x3f999ae2	1.2000391
22	0x3d8accd5	0.0677735
23	0xbe2b356c	-0.16719598
24	0x3efe949b	0.49722752
25	0xbf45c51a	-0.7725388
26	0x3e536f93	0.20648031
27	0x3e668d91	0.22514941
28	0x3d27d9e7	0.040979292
29	0x3e09f3e1	0.13471939
30	0xbf0165fb	-0.50546235
31	0x3cb26dfb	0.021780958
32	0x3dbf27e8	0.093337834
33	0x3f04aca3	0.5182592
34	0xbfb6ed32	-1.4291136
35	0xbf0e17c6	-0.55505025
36	0xbdf94c02	-0.121727005
37	0xbe7095e4	-0.23494679
38	0xbe75356d	-0.23946162
39	0x3e8b5caa	0.27219135
40	0x3d2a17b7	0.041526522
41	0xbf11b296	-0.56913126
42	0x3e66f2d5	0.2255357
43	0x3ee2b1dc	0.4427632
44	0xbe2ad0ac	-0.16681165
45	0x3e44382a	0.1916205
46	0x3da59f03	0.0808697
47	0x3f368729	0.7129999
48	0xbe532e4c	-0.2062313
49	0xbeb10960	-0.34577465
50	0xbf19e029	-0.60107666
51	0xbef4e458	-0.47830462
52	0xbe2a1df9	-0.16612996
53	0xbf28d47e	-0.6594924
54	0x3f060750	0.5235491
55	0x3ebbc943	0.36676988
56	0x3ea4ce33	0.32188568
57	0xbf96f6ce	-1.1794069
58	0xbe8a3350	-0.26992273
59	0xbe74b20c	-0.23896044
60	0x3ea16992	0.31525856
61	0xbecf9b61	-0.40548232
62	0xbdd53228	-0.10409957
63	0x3f0c8b89	0.54900414

features.5.running_var f4 [64]
0	0x3fbd8287	1.4805459
1	0x3ec44988	0.3833735
2	0x3f80ec27	1.0072068
3	0x3f5d8733	0.8653442
4	0x3ed8872e	0.42290634
5	0x3f2547a7	0.6456246
6	0x3eddd6e3	0.43328008
7	0x3f639bf7	0.8890986
8	0x3f9be341	1.2178727
9	0x3ee3a556	0.4446208
10	0x3f65cf32	0.8976928
11	0x3e32ee22	0.17473653
12	0x3fde2192	1.7353995
13	0x3fe4470b	1.783418
14	0x3ecd6b10	0.40120745
15	0x3f82b7f8	1.0212393
16	0x3fc1461c	1.5099521
17	0x3f9aac4c	1.2083831
18	0x3f30de2e	0.6908902
19	0x3f66a6cb	0.90098256
20	0x3f96c987	1.1780251
21	0x40263933	2.5972412
22	0x3f8addf5	1.0848986
23	0x3ed164f1	0.40897325
24	0x3ec1d9b4	0.37861407
25	0x3fd6a1d5	1.6768137
26	0x3f739b16	0.9515852
27	0x3f1b2460	0.6060238
28	0x3eaae3f6	0.33377045
29	0x3f1095ea	0.5647875
30	0x3ec46a42	0.38362318
31	0x3f27859d	0.6543825
32	0x3ea1daa0	0.3161211
33	0x4004c310	2.0744057
34	0x3fbb48ce	1.4631593
35	0x3e953636	0.29142922
36	0x3e954f06	0.29161853
37	0x3eb65416	0.35611027
38	0x3f6aa5ed	0.9165943
39	0x3f1b254f	0.60603803
40	0x3f2cf393	0.67559165
41	0x3f0b8806	0.5450443
42	0x3e2cf5e6	0.16890678
43	0x3f0ab3dc	0.54180694
44	0x3f542084	0.82862115
45	0x3ec00241	0.3750172
46	0x3eaf1dab	0.34202322
47	0x3ed4c4b6	0.4155633
48	0x3eeb2340	0.4592533
49	0x3eb110f2	0.3458324
50	0x3f89f3cb	1.0777525
51	0x3f8b764d	1.0895478
52	0x3f00b419	0.5027481
53	0x3f8c1939	1.0945197
54	0x3f52cafe	0.8234099
55	0x3f3eaef4	0.7448571
56	0x3f014a87	0.50504345
57	0x3fac0e71	1.3441907
58	0x3e3b8b7c	0.18314928
59	0x3f2a1f66	0.6645416
60	0x3f042629	0.5162073
61	0x3f312717	0.6920027
62	0x3edecdf9	0.4351652
63	0x3f73b7fb	0.95202607

fc.weight f4 [32, 64]
0	0xbba104ec	-0.004913917
1	0xbcd242b1	-0.025666567
2	0xbdd394ea	-0.103311375
3	0x3db55700	0.088544846
4	0xbda4256d	-0.08014951
5	0x3d510503	0.05103017
6	0xbda544c1	-0.080697544
7	0x3db05af2	0.086110964
8	0x3d949184	0.072543174
9	0xbc891f37	-0.016738517
10	0x3d8a1669	0.06742556
11	0x3d2cd61d	0.04219638
12	0xbcc3ff36	-0.023925405
13	0x3d8a2601	0.0674553
14	0xbd96e4d4	-0.07367864
15	0xbdd2d24b	-0.102940165
16	0xbcc1420c	-0.023591064
17	0xbdca5860	-0.098801374
18	0x3dbafd99	0.09130401
19	0x3d1f1e54	0.038847283
20	0xbcfad6ca	-0.030619998
21	0x3d9b96ee	0.07597147
22	0xbd8f1b37	-0.06987613
23	0xbd9ec5b7	-0.07752555
24	0x3deb8fbb	0.11502024
25	0xbdcca504	-0.09992412
26	0xbcf4924e	-0.02985492
27	0xbd4076a5	-0.04698815
28	0x3d814972	0.06312837
29	0x3d7db004	0.06193544
30	0xbd75e1e3	-0.060029875
31	0x3c41a7d9	0.011819803
32	0xbdcc2683	-0.09968283
33	0xbd637360	-0.055529952
34	0xbd5d2e80	-0.053999424
35	0xbc81d259	-0.015847372
36	0x3d3f4651	0.04669792
37	0x3db29186	0.08719163
38	0x3dd265b9	0.10273308
39	0xbc2973e2	-0.01034257
40	0x3d3cfc4b	0.046139043
41	0xbdee853d	-0.11646507
42	0xbd6a49ed	-0.057199407
43	0x3d6510fe	0.05592441
44	0x3da375ef	0.079814784
45	0x3d267aed	0.040644575
46	0xbc878c8c	-0.01654651
47	0x3dd2cec8	0.10293347
48	0x3bb1202e	0.0054054474
49	0x3c9edd8a	0.019392747
50	0x3cdcd72d	0.026958073
51	0x3df834f0	0.12119472
52	0xbda1cc16	-0.079002544
53	0xbdd1eb05	-0.102499045
54	0xbd8ebd12	-0.06969656
55	0x3db4f17b	0.08835121
56	0x3bb45fd4	0.0055045877
57	0x3dcb12ca	0.09915693
58	0xbc9d4463	-0.019197648
59	0x3c7f8a4a	0.0155969355
60	0xbd645694	-0.05574663
61	0xbd9d188b	-0.07670697
62	0xbc36393b	-0.011122043
63	0x3e0e573d	0.13900466
64	0xbb79984f	-0.0038085168
65	0x3dcbcdba	0.099513486
66	0xbd84e38f	-0.06488716
67	0x3b22197f	0.0024734435
68	0xbde7441b	-0.11292287
69	0x3d8c948e	0.06864272
70	0xbc7fda84	-0.015616063
71	0x3ca4248c	0.020036958
72	0x3de0e9c3	0.109820865
73	0x3decdd1d	0.115656115
74	0xbd72eaff	-0.05930614
75	0x3dc3508a	0.09536846
76	0xbc15aae2	-0.00913498
77	0x3d7f667f	0.062353607
78	0xbd627208	-0.05528453
79	0xbc36fb58	-0.011168323
80	0x3df0a7d1	0.117507584
81	0xbcac48f3	-0.021030879
82	0x3b95a72f	0.004567049
83	0xbd82cfd6	-0.06387298
84	0xbd97174f	-0.07377493
85	0x3d82b69e	0.06382488
86	0x3d418c8f	0.047253188
87	0xbdae9cf2	-0.08526029
88	0xbd9a5a03	-0.075366996
89	0x3bb676be	0.0055683544
90	0x3dc81426	0.09769468
91	0xbd6e8e2f	-0.058241066
92	0xbcb8b54d	-0.022547388
93	0xbdcb471d	-0.09925673
94	0x3d8b74a8	0.0680936
95	0x3dfa7611	0.12229551
96	0x3dc9526e	0.09830175
97	0x3d68cc55	0.05683549
98	0xbdf116f9	-0.1177196
99	0x3c87cbec	0.01657673
100	0xbdda5933	-0.10661545
101	0x3d8d94ed	0.06913171
102	0x3deb8df7	0.11501687
103	0xbd28d09a	-0.041214563
104	0x3d8c69cc	0.06856117
105	0x3d5e06c7	0.054205682
106	0x3d9fa736	0.07795565
107	0x3d85a4af	0.065255515
108	0x3c872871	0.016498776
109	0x3be0297d	0.0068408833
110	0x3d47a87d	0.048744667
111	0x3d49d7e6	0.049278162
112	0xbcaa684b	-0.020801684
113	0xbdfa8c01	-0.12233735
114	0xbd81fcd1	-0.06347049
115	0x3dbca6cc	0.092115015
116	0x3c7019f6	0.014654627
117	0xbd57a5b9	-0.05264828
118	0x3d22c3f5	0.03973766
119	0xbdc2e1a1	-0.095156915
120	0x3d1cf774	0.038321927
121	0x3df09cdf	0.11748671
122	0xbd87c118	-0.066286266
123	0xbce16206	-0.027512562
124	0xbdc44d35	-0.095850386
125	0xbdbfdf86	-0.093688056
126	0xbd2476df	-0.040152427
127	0xbdf1aec0	-0.11800909
128	0x3d8720cd	0.06598053
129	0xbdeb5ab7	-0.11491912
130	0x3d5143f8	0.05109021
131	0x3dde7065	0.10861281
132	0x3da649ca	0.08119543
133	0x3dfdce0f	0.12392818
134	0x3de2ddd0	0.110774636
135	0x3d54ca95	0.05195101
136	0xbd6c9296	-0.057756983
137	0xbda795b4	-0.081828505
138	0xbdaa9f81	-0.08331204
139	0x3c4095f1	0.011754499
140	0xbc82b708	-0.015956417
141	0x3d87da32	0.06633414
142	0xbd8c106a	-0.06839068
143	0x3b1633eb	0.002291913
144	0xbd3ae14b	-0.045625012
145	0x3dbb51ae	0.091464385
146	0x3c4e1d52	0.012580233
147	0xbd06d252	-0.03291542
148	0x3dd02944	0.10164121
149	0xbc81750e	-0.015802886
150	0x3db47d50	0.08812964
151	0x3cb463bd	0.022020215
152	0xbd6ebca9	-0.05828539
153	0x3d8b8f59	0.06814451
154	0x3d678084	0.056519046
155	0xbd08b296	-0.033373438
156	0xbdd0b64a	-0.10191019
157	0xbde5c7a7	-0.11219721
158	0x3dff6e3e	0.12472199
159	0xbc9ceef6	-0.019156914
160	0x3c711795	0.014715095
161	0x3d728085	0.059204597
162	0xbde502ea	-0.111821964
163	0xbda41c1d	-0.08013175
164	0xbda1a93a	-0.078936055
165	0x3d746c27	0.059673455
166	0x3de0a8fa	0.1096973
167	0xbcb9bf3d	-0.022674197
168	0x3d1adf51	0.037810627
169	0xbdc0caeb	-0.094137035
170	0x3d1c1f31	0.038115684
171	0x3d674175	0.05645891
172	0xbd8b3858	-0.06797856
173	0xbb5dcea1	-0.0033845084
174	0x3d8c4f66	0.068510816
175	0x3d3c97ea	0.046043314
176	0xbd16f26e	-0.036852293
177	0x3dd1e174	0.1024808
178	0xbdb31af5	-0.08745376
179	0x3d06b9cf	0.032892045
180	0xbd1c8b4d	-0.038218785
181	0xbd8eb8f8	-0.06968874
182	0x3dc5c806	0.09657292
183	0xbd025d31	-0.031827156
184	0xbd891412	-0.06693281
185	0xbde93647	-0.11387306
186	0xbde5ee50	-0.11227095
187	0xbdc71aa7	-0.097218804
188	0xbc8ef83d	-0.017452354
189	0x3d927bad	0.071524955
190	0x3a107249	0.0005510194
191	0xbdf05f21	-0.117368944
192	0xbdde3524	-0.108499795
193	0xbd9be992	-0.076129094
194	0xbd9cf096	-0.076630756
195	0x3afe8842	0.001941927
196	0xbd8c3073	-0.068451785
197	0x3c858ef5	0.016303519
198	0xbd581403	-0.05275346
199	0x3dd258fb	0.10270878
200	0xbd44666d	-0.047949243
201	0xbcb1bfeb	-0.021697959
202	0x3dbcbbd4	0.09215513
203	0x3d183caa	0.03716723
204	0xbdcf8fa0	-0.10134816
205	0xbcc7542a	-0.024332125
206	0x3d580fe4	0.05274953
207	0xbddf2733	-0.108961485
208	0xbd1834c2	-0.03715969
209	0xbd8815a9	-0.06644756
210	0x3b22bd1e	0.002483196
211	0xbda808c2	-0.082047954
212	0x3dc78c9c	0.09743616
213	0xbe0201ed	-0.12696047
214	0x3dcbed1f	0.09957337
215	0xbdc9f945	-0.098619975
216	0x3c8343cb	0.016023537
217	0xbd5a7fb1	-0.053344432
218	0x3d9a79bc	0.0754275
219	0xbd005b42	-0.03133703
220	0xbdc809d1	-0.09767497
221	0x3c051918	0.008123659
222	0xbd7bbc62	-0.061458953
223	0x3d76510b	0.060135882
224	0x3cfa66cf	0.030566601
225	0x3dc70599	0.097178645
226	0xbd4e50c1	-0.05036998
227	0x3dc4041f	0.095710985
228	0xbdcdf640	-0.10056734
229	0x3dba3d16	0.090936825
230	0xbd764b5d	-0.060130466
231	0x3ca0be3e	0.019621965
232	0xbd952622	-0.07282664
233	0x3cbe7b0c	0.023252033
234	0x3de658a8	0.112473786
235	0x3d98454a	0.07435091
236	0x3e03030d	0.12794133
237	0x3db1417c	0.08655068
238	0x3d3e5f2d	0.046477485
239	0xbdac422d	-0.084110595
240	0xbdbf568f	-0.093426816
241	0x3dfbe12a	0.12298806
242	0x3d19f1be	0.03758406
243	0xbda943d7	-0.082648925
244	0x3d7afb39	0.06127474
245	0x3ccba799	0.02486019
246	0x3d152182	0.03640891
247	0x3df0726c	0.11740574
248	0xbddf4d25	-0.10903386
249	0xbdca343f	-0.098732464
250	0x3da9fa23	0.08299663
251	0x3866fc03	5.5070977e-05
252	0x3c52c8b2	0.012865232
253	0x3de801b3	0.11328449
254	0xbd8db347	-0.0691896
255	0x3b9d2096	0.0047951443

fc.bias f4 [32]
0	0xbdd97834	-0.1061863
1	0xbdf763de	-0.12079595
2	0x3ce4dc2a	0.027937014
3	0xbcd7a76d	-0.026324952
4	0xbc200922	-0.009767802
5	0x3b828e22	0.0039842287
6	0x3de4f0b5	0.11178724
7	0x3af298b7	0.0018508647
8	0xbcbb23f0	-0.022844285
9	0xbbb0b71c	-0.005392922
10	0x3b351e1a	0.002763635
11	0x3c0aeb2e	0.008478923
12	0x3cdc4078	0.02688621
13	0x3d094330	0.03351134
14	0x3de2476a	0.110487774
15	0xbdc6aaf9	-0.09700579
16	0xbd8c912d	-0.068636276
17	0x3d7aa886	0.061195873
18	0xbca51c2e	-0.020155039
19	0xbd5f9a22	-0.054590352
20	0x3dedf4ec	0.11618981
21	0xbd96a0fb	-0.07354923
22	0x3b914d5f	0.004434272
23	0xbdbd2b7a	-0.09236808
24	0x3dcb9fd0	0.09942591
25	0xbd9f554d	-0.07779942
26	0x3dca4cd2	0.098779336
27	0xbd6ca4e3	-0.057774436
28	0xbdc55a76	-0.09636395
29	0xbdadb53e	-0.08481835
30	0x3ca13d55	0.019682566
31	0x3b2c5141	0.0026293548
