model/best_model_batch_greyscale_mnistSimpleCNN.pt (torch, 91598 bytes, 14 tensors)

features.0.weight f4 [32, 1, 3, 3]
0	0xbda74ee2	-0.081693426
1	0xbe626d19	-0.2211193
2	0xbeb4ec6c	-0.35336626
3	0xbe3b179e	-0.18270728
4	0xbe61c8a8	-0.220492
5	0x3dcde633	0.10053673
6	0xbe785c1c	-0.24253887
7	0x3dbfccd7	0.09365242
8	0x3e8a349e	0.2699327
9	0xbcd2ffc9	-0.025756733
10	0x3d7c8036	0.06164571
11	0x3e819fbb	0.25317177
12	0x3e179ffd	0.14807124
13	0x3ea4f200	0.3221588
14	0x3e234b3e	0.15946671
15	0x3e848e81	0.25889972
16	0x3e2921b6	0.16516766
17	0xbe54a302	-0.20765308
18	0x3e778407	0.24171458
19	0x3e592de8	0.21208918
20	0xbe2f57ad	-0.1712329
21	0x3d35b819	0.044365022
22	0xbeb35450	-0.35025263
23	0x3e6f9ad1	0.23398902
24	0x3e7efe75	0.24901755
25	0xbd36dcbb	-0.0446441
26	0x3e23016b	0.1591851
27	0xbbcbaa82	-0.0062153945
28	0x3cab6ae6	0.020924997
29	0x3d5f72ef	0.05455297
30	0x3bccf8bc	0.0062552374
31	0xbe1c05dd	-0.15236612
32	0xbe51693d	-0.20450301
33	0xbe15dfd0	-0.14636159
34	0xbdfef6da	-0.12449427
35	0x3e6d92a7	0.23200475
36	0xbe810cf7	-0.25205204
37	0xbd0da94d	-0.034585286
38	0x3e8d619e	0.27613539
39	0xbe0f1a0a	-0.13974777
40	0xbc55925e	-0.013035385
41	0x3dd282cb	0.10278853
42	0xbd803776	-0.06260578
43	0x3e90afab	0.28259024
44	0xbe98bc70	-0.29831266
45	0xbeb47a1a	-0.35249406
46	0x3c6d2833	0.014474916
47	0xbe5f4d17	-0.21806751
48	0x3dd40155	0.103518166
49	0xbe95c883	-0.2925454
50	0xbe080669	-0.13283695
51	0xbd83ab0d	-0.0642911
52	0x3e85f8ba	0.26166326
53	0x3dbf31ff	0.09335708
54	0x3e6156c2	0.22005752
55	0x3e244490	0.1604178
56	0x3dd3de49	0.10345132
57	0x3d426522	0.04745973
58	0xbe2e410a	-0.17016998
59	0x3ca0d73c	0.019633882
60	0xbe53c96c	-0.20682305
61	0xbe3fcb9a	-0.18730012
62	0xbe4b20ee	-0.1983678
63	0xbdf2117a	-0.1181974
64	0xbeb67b2a	-0.35640842
65	0x3dce591e	0.100755915
66	0xbe9ab661	-0.3021727
67	0xbe63539e	-0.22199866
68	0xbdae48b3	-0.0850996
69	0xbd351f7c	-0.04421948
70	0xbe5cefa7	-0.21575795
71	0x3e7d05aa	0.24709192
72	0x3e8cb067	0.27478334
73	0xbdf239da	-0.118274406
74	0xbec370ad	-0.38171902
75	0xbea6d133	-0.3258148
76	0x3da0db15	0.078542866
77	0x3e857cac	0.2607168
78	0xbd927fe1	-0.07153297
79	0x3cfde379	0.030992256
80	0xbdeeb791	-0.11656106
81	0xbe0f38ca	-0.13986507
82	0x3e0a1a62	0.13486627
83	0x3deca7f0	0.11555469
84	0x3bd66b8b	0.006543582
85	0x3e02796f	0.12741636
86	0x3dc83572	0.09775819
87	0xbec97359	-0.39345816
88	0xbe1e4544	-0.1545611
89	0x3d76fe4a	0.060301103
90	0x3e2be3d3	0.16786127
91	0x3c97f0d1	0.018547447
92	0xbd0be7c1	-0.034156565
93	0x3bc72000	0.0060768127
94	0xbe650d51	-0.22368361
95	0xbe8537ff	-0.26019284
96	0x3dab6e74	0.08370677
97	0xbe918f76	-0.28429765
98	0x3d8e3eae	0.06945549
99	0x3e8e688b	0.27814135
100	0xbe0de3d8	-0.13856447
101	0x3e7999cf	0.2437508
102	0xbdcb545a	-0.09928198
103	0xbdebdecb	-0.11517104
104	0x3e837fd1	0.25683454
105	0xbe1c8e2a	-0.15288606
106	0xbd97d8c5	-0.074143924
107	0x3e803536	0.25040597
108	0xbe6d98ec	-0.23202866
109	0xbdccac4d	-0.09993801
110	0x3d7bd2b6	0.061480246
111	0x3dd2c2b7	0.10291045
112	0xbe1e126d	-0.15436716
113	0xbdc272bd	-0.09494541
114	0x3d2ca0dd	0.0421456
115	0xbde7a354	-0.11310449
116	0xbdcae8ff	-0.09907722
117	0x3bdd10e2	0.0067463974
118	0xbd5276b3	-0.05138273
119	0xbe914541	-0.2837315
120	0x3e75ab17	0.23991047
121	0xbe98648c	-0.2976421
122	0x3d47dc9b	0.04879437
123	0x3e5491fa	0.2075881
124	0xbd396e85	-0.045271415
125	0xbea169fd	-0.31526175
126	0x3d6b8ebe	0.057509176
127	0x3ea2168b	0.31657824
128	0xbe528c65	-0.20561369
129	0x3df2ebe2	0.11861397
130	0x3d60cb6f	0.05488151
131	0xbd072776	-0.032996617
132	0x3c6e15b2	0.01453154
133	0x3e87f832	0.26556545
134	0x3ea1cbc2	0.31600767
135	0xbe0de362	-0.13856271
136	0xbd2b014e	-0.04174929
137	0x3e847239	0.25868395
138	0x3e6c578d	0.23080273
139	0x3e622536	0.22084507
140	0x3eb898e7	0.36054155
141	0x3e295ff1	0.16540505
142	0x3eb6b868	0.35687566
143	0x3d98b727	0.074568085
144	0x3e3a7df4	0.1821211
145	0x3e37feaa	0.1796824
146	0xbed598b0	-0.41718054
147	0x3d9c58cb	0.076341234
148	0xbe1482f7	-0.14503084
149	0xbe844a3c	-0.25837886
150	0x3e40d98f	0.18832992
151	0xbe0812e7	-0.1328846
152	0xbe080790	-0.13284135
153	0xbe24048f	-0.16017364
154	0xbe8657cd	-0.26238862
155	0xbe911cbd	-0.28342238
156	0x3e954bc9	0.29159382
157	0xbe2a8b37	-0.16654669
158	0x3db1c8b8	0.08680862
159	0x3e740c2d	0.2383277
160	0xbe872912	-0.26398522
161	0xbe666897	-0.22500835
162	0x3e48d4d3	0.19612436
163	0x3e25b1e1	0.16181137
164	0xbeb76392	-0.35818154
165	0x3c0a160d	0.008428109
166	0x3e948ed0	0.29015207
167	0xbea3992e	-0.31952804
168	0x3b77ba30	0.0037800185
169	0xbe7a3349	-0.24433626
170	0xbec826a3	-0.39091977
171	0xbe6adb30	-0.22935176
172	0xbc7c133d	-0.015385446
173	0x3e3cb541	0.18428518
174	0xbebd38e9	-0.36957482
175	0x3e5af908	0.2138406
176	0xbdd164fc	-0.10224339
177	0xbe7c2bf4	-0.24626142
178	0x3df97305	0.12180141
179	0x3e7e4172	0.24829653
180	0xbe160587	-0.14650546
181	0x3e023306	0.12714776
182	0x3d8e5d0e	0.069513425
183	0xbe8773da	-0.26455575
184	0xbe716b76	-0.2357615
185	0xbdc43410	-0.09580243
186	0x3e0a64c3	0.13515
187	0x3e8de089	0.2771037
188	0xbe8efd44	-0.279276
189	0xba99cd3a	-0.0011734136
190	0x3e8e5e55	0.27806345
191	0xbe7cc8aa	-0.24685922
192	0xbea29a21	-0.31758216
193	0x3db0f7de	0.08641027
194	0x3dfefb26	0.124502465
195	0x3d838c31	0.06423224
196	0xbeb4b188	-0.35291696
197	0xbe32b234	-0.17450792
198	0xbe8471f8	-0.258682
199	0x3e800672	0.25004917
200	0x3da598d9	0.08085794
201	0xbc2fd61f	-0.010732203
202	0x3e98893f	0.2979221
203	0xbe1a8af5	-0.1509207
204	0xbee34c16	-0.44393986
205	0xbe727ade	-0.23679683
206	0xbe09cfce	-0.13458177
207	0x3eda3af5	0.42623106
208	0x3cb35abe	0.021893855
209	0x3e0eb6cd	0.1393692
210	0x3e9608f5	0.2930371
211	0xbe6a34ad	-0.22871657
212	0x3e9ca718	0.30596232
213	0x3e81b446	0.2533285
214	0x3e4c23f4	0.1993559
215	0x3d944bcd	0.0724102
216	0xbeb4cb5a	-0.35311395
217	0x3d250f76	0.040297948
218	0x3e4b486c	0.19851846
219	0xbd0c4c42	-0.034252413
220	0x3df41dc0	0.11919737
221	0x3e1af6b1	0.15133168
222	0x3ecb65d2	0.3972612
223	0xbd72e1ae	-0.059297256
224	0x3ddb3663	0.10703733
225	0xbe0583ee	-0.13038608
226	0xbde154e4	-0.1100252
227	0xbda02a1c	-0.07820532
228	0xbd0e489e	-0.034737222
229	0xbe8212a9	-0.25404862
230	0x3e813013	0.2523199
231	0xbe346285	-0.17615707
232	0xbcd67744	-0.026179917
233	0xbe3baf45	-0.18328579
234	0x3ecfba3f	0.40571782
235	0x3d7d5ce6	0.061856173
236	0x3d9b2c7c	0.07576844
237	0x3e96eeed	0.2947916
238	0x3e4b985e	0.19882342
239	0xbe25fe2f	-0.16210245
240	0xbd58af45	-0.052901525
241	0x3dfd9c30	0.12383306
242	0x3dc51ad0	0.09624255
243	0x3e87dce6	0.2653572
244	0x3e16c7d1	0.14724661
245	0xbaa53d68	-0.0012606801
246	0xbe3e7607	-0.18599711
247	0x3d221622	0.03957189
248	0xbe6b611c	-0.22986263
249	0xbdeccc19	-0.11562366
250	0xbea68d48	-0.32529664
251	0xbe5acf0a	-0.21368042
252	0x3e35a424	0.17738396
253	0xbe991eab	-0.2990621
254	0xbe80bbeb	-0.2514337
255	0xbd794423	-0.060855996

features.0.bias f4 [32]
0	0xbe43f596	-0.19136652
1	0xbe08e57b	-0.1336879
2	0x3e30435e	0.17213199
3	0x3d2efa2f	0.042719062
4	0x3ea785b4	0.32719195
5	0x3ea12da2	0.31480128
6	0xbe118475	-0.14210685
7	0xbe85b643	-0.26115617
8	0x3ea2551b	0.31705555
9	0xbeae1524	-0.34000504
10	0x3e5ebd63	0.21751933
11	0x3e53037e	0.20606801
12	0x3e8b358c	0.2718929
13	0xbe680eb3	-0.22661857
14	0xbb6c92aa	-0.003609816
15	0x3e465fb4	0.19372445
16	0x3d71d24c	0.059038445
17	0xbdd122f5	-0.10211746
18	0x3c4a9725	0.012365137
19	0x3e179388	0.14802372
20	0x3cae0c94	0.021246232
21	0xbe4c3272	-0.19941118
22	0xbd84222e	-0.06451832
23	0x3cee0e31	0.029059501
24	0x3e507c54	0.20359927
25	0xbe4c3721	-0.19942905
26	0x3ddd86a9	0.108167
27	0xbe913244	-0.28358662
28	0xbe9109f0	-0.28327894
29	0xbeaaafef	-0.33337352
30	0xb9132d34	-0.00014035852
31	0x3d4edf7f	0.05050611

features.1.weight f4 [32]
0	0x3f962b9d	1.173206
1	0x3f5d10c9	0.8635374
2	0x3f3ead9e	0.7448367
3	0x3f838d56	1.0277507
4	0x3f721206	0.9455875
5	0x3f91f5db	1.1403154
6	0x3f91608f	1.1357592
7	0x3f8a485a	1.080333
8	0x3f8158cd	1.0105225
9	0x3f871844	1.055428
10	0x3f8376b9	1.0270606
11	0x3f634128	0.88771296
12	0x3f9b3aad	1.2127281
13	0x3f83f251	1.0308324
14	0x3f6555cf	0.8958406
15	0x3f51ff85	0.82030517
16	0x3f86dc4f	1.0535983
17	0x3f8ab91e	1.0837743
18	0x3f924484	1.1427159
19	0x3f849af7	1.0359792
20	0x3f850295	1.0391413
21	0x3f812d07	1.0091866
22	0x3f98d917	1.194125
23	0x3f635bdc	0.8881204
24	0x3f5e6d4c	0.86885524
25	0x3f9d6ab6	1.229819
26	0x3f461eaa	0.7739054
27	0x3f8d6d03	1.1048893
28	0x3f7ce3f5	0.98785335
29	0x3f77c36b	0.9678256
30	0x3f6df31d	0.92949086
31	0x3f860d3f	1.0472792

features.1.bias f4 [32]
0	0xbda6b1cc	-0.08139381
1	0xbec4841d	-0.38382044
2	0xbe7cd8b9	-0.24692048
3	0xbe00ae84	-0.12566572
4	0xbe107728	-0.14107955
5	0x3c0062e0	0.007836074
6	0xbdfc56b0	-0.12321222
7	0x3d3854fa	0.045002915
8	0xbdad98c1	-0.08476401
9	0xbe06f336	-0.13178715
10	0xbd04c458	-0.03241381
11	0xbe0a74a3	-0.13521056
12	0x3e237505	0.15962608
13	0xbd1aca26	-0.03779044
14	0xbeae77f3	-0.3407589
15	0xbe83c735	-0.2573792
16	0xbdb15534	-0.08658829
17	0xbd643954	-0.055718735
18	0x3ca5c2a2	0.02023441
19	0xbe1ea64d	-0.15493126
20	0xbd3139d4	-0.04326804
21	0xbc6e659c	-0.014550593
22	0x3c16b239	0.009197765
23	0xbe6b2540	-0.22963428
24	0xbe5cb91e	-0.21554992
25	0x3d44fdb2	0.048093505
26	0xbde10b38	-0.10988468
27	0xbde72901	-0.11287118
28	0x3ce30111	0.02771047
29	0x3d7cd13b	0.061722975
30	0xbe16c738	-0.14724433
31	0x3d40e48b	0.047092956

features.1.running_mean f4 [32]
0	0xbe8b292c	-0.2717985
1	0xbcc87aaf	-0.024472563
2	0x3e68c6ef	0.22732137
3	0x3c424e32	0.0118594635
4	0x3ea0a9ff	0.31379697
5	0x3e8454ff	0.25846097
6	0xbe2687cf	-0.16262744
7	0xbeb6c040	-0.3569355
8	0x3e902a08	0.28157067
9	0xbeb54390	-0.3540311
10	0x3e31a9de	0.17349955
11	0x3e7f2556	0.24916586
12	0x3e5ca155	0.21545918
13	0xbe8c256c	-0.273723
14	0x3daafb81	0.08348752
15	0x3eac82f8	0.3369367
16	0x3c71d933	0.014761257
17	0xbe31c4d9	-0.17360248
18	0xbd4ed0b5	-0.050492007
19	0x3e0463e9	0.12928738
20	0xbc97e99a	-0.018544007
21	0xbe80be34	-0.25145113
22	0xbdfbe760	-0.12299991
23	0x3e2fc633	0.17165451
24	0x3e8438f7	0.2582471
25	0xbe8a91e7	-0.2706444
26	0x3e555670	0.20833755
27	0xbeafcffc	-0.34338367
28	0xbea1e084	-0.31616604
29	0xbeb686fd	-0.35649863
30	0xbc72e222	-0.014824422
31	0xb9eb3fe5	-0.00044870298

features.1.running_var f4 [32]
0	0x3d7b74e2	0.061390765
1	0x3d9dd0e4	0.07705858
2	0x3cad185f	0.021129785
3	0x3c3c1996	0.01148071
4	0x3c9a3b25	0.01882703
5	0x3ce54efc	0.027991764
6	0x3cab7fb3	0.020934915
7	0x3d98debf	0.074643604
8	0x3c80cbb8	0.01572214
9	0x3c93a431	0.018022629
10	0x3ce24865	0.027622411
11	0x3cda0f6d	0.026618684
12	0x3c9136e4	0.01772637
13	0x3d12c93d	0.035836447
14	0x3d33bd3b	0.043881636
15	0x3dfa1e88	0.122128546
16	0x3d5032be	0.05082964
17	0x3d3ffeff	0.046874043
18	0x3d8b1809	0.06791694
19	0x3d1b8bc5	0.03797509
20	0x3c8a7415	0.016901055
21	0x3cb63d0c	0.022245906
22	0x3d07028f	0.032961424
23	0x3dc18af5	0.09450332
24	0x3d09e058	0.033661216
25	0x3cf4b8fe	0.029873367
26	0x3d7a4eea	0.061110415
27	0x3d2bc6d3	0.04193766
28	0x3ce326e2	0.027728502
29	0x3c08e0fe	0.008354424
30	0x3c8383a1	0.016053976
31	0x3cfe6bd0	0.031057268

features.4.weight f4 [64, 32, 3, 3]
0	0xbd57823c	-0.052614436
1	0xbcee2fee	-0.029075589
2	0xbca4f499	-0.020136165
3	0x3ced8836	0.028995614
4	0x3dfb64b0	0.12275064
5	0xbd491608	-0.049093276
6	0x3ba6efbf	0.005094498
7	0x3d9f86e5	0.07789401
8	0x3c1830b2	0.009288954
9	0x3cce6559	0.02519481
10	0xbd6cea5e	-0.057840697
11	0xbd30c5cd	-0.043157388
12	0x3b20c1f3	0.0024529665
13	0xbd6103e1	-0.05493534
14	0x3d014d29	0.031567726
15	0x3d730d1a	0.059338666
16	0xbc94c230	-0.018159002
17	0xbc8dfe48	-0.017333165
18	0x3bab8b21	0.0052350913
19	0x3d117b20	0.03551781
20	0xbd2fcfe3	-0.042922866
21	0xbd5fbc6a	-0.054623045
22	0xbc5da56d	-0.01352821
23	0xbcc48e91	-0.023993762
24	0x3cce9c0c	0.025220893
25	0x3cca0408	0.024660125
26	0xbd52259d	-0.051305402
27	0x3ce596e4	0.028026052
28	0x3d3d6f44	0.04624869
29	0x3bc337e3	0.00595759
30	0xbd451e73	-0.04812474
31	0x3e02bd63	0.12767558
32	0xbc4e0eab	-0.012576739
33	0xbd588221	-0.052858476
34	0x3cb3a701	0.02193022
35	0xbb4d8bb1	-0.003136378
36	0xbd98dbee	-0.07463823
37	0xbd19f4f4	-0.03758712
38	0xbdc5724e	-0.096409425
39	0xbc32dae1	-0.010916443
40	0xbcf013ff	-0.02930641
41	0x3d6c0ceb	0.057629507
42	0xbc619d41	-0.013770402
43	0xbd73d59a	-0.05952988
44	0x3ca94674	0.020663477
45	0x3dbdfa02	0.09276201
46	0x3d747cc1	0.059689287
47	0x3d5454b0	0.051838577
48	0xbd5db9b4	-0.05413218
49	0x3dd87662	0.10569455
50	0x3dcbd9c8	0.09953648
51	0x3d0b9528	0.034077793
52	0x3deed853	0.11662354
53	0x3cc69a79	0.02424358
54	0x3d9085a4	0.0705674
55	0x3d881bd1	0.066459306
56	0xbd1e32d7	-0.038622703
57	0x3c5490a4	0.012973938
58	0x3d4bce98	0.04975757
59	0xbd2c7c00	-0.042110443
60	0x3d0f0e76	0.0349259
61	0x3d831799	0.06400985
62	0x3c9451cc	0.01810541
63	0xbd3d86cd	-0.046271134
64	0xbc41d33c	-0.011830147
65	0xbd857970	-0.06517303
66	0xbc8a6594	-0.01689414
67	0x3e4e5276	0.20148644
68	0xbcff70bd	-0.031181687
69	0xbdd4a4b5	-0.10382978
70	0x3ccd57a0	0.025066197
71	0xbd1f1b57	-0.038844433
72	0x3d62d568	0.0553793
73	0xbd26e821	-0.04074872
74	0x3c2888db	0.010286535
75	0x3cbf8ae5	0.02338166
76	0x3dccc9d8	0.09999436
77	0x3dd44407	0.10364538
78	0xbcb5b57b	-0.022181263
79	0xbc41731c	-0.011807229
80	0xbc2c5a57	-0.010519586
81	0x3d1da792	0.038489886
82	0xbcc089d5	-0.023503223
83	0x3ca9a3ac	0.020707928
84	0xbc23831d	-0.00997999
85	0xbd6bdab1	-0.057581607
86	0x3cb9d995	0.022686759
87	0xbdf774c6	-0.1208282
88	0xbda2af0f	-0.07943546
89	0xbc15edc3	-0.009150925
90	0x3d427dfd	0.047483433
91	0xbc767bc8	-0.01504416
92	0xbd037ddb	-0.032102447
93	0x3a91db14	0.0011127912
94	0x3c092073	0.008369553
95	0xbd5edefa	-0.054411866
96	0x3c7d61ca	0.015465209
97	0x3d093388	0.03349641
98	0x3ca54db0	0.020178646
99	0x3b0bf5c5	0.0021356207
100	0xbd63c41f	-0.055606958
101	0xbb98de1e	-0.0046651503
102	0xbbc3e93e	-0.0059787324
103	0xbd7a9b9e	-0.061183564
104	0x3d3953a7	0.045245793
105	0xbe0fa063	-0.14026026
106	0xbd86cdcd	-0.06582222
107	0xbb416e42	-0.0029515182
108	0x3c524762	0.012834402
109	0xba7084ef	-0.0009175082
110	0x3b97db1a	0.0046342732
111	0xbcb2c03a	-0.021820176
112	0x3db35327	0.087560944
113	0x3d488b08	0.048960716
114	0x3c827b28	0.015927866
115	0xbc9e14e7	-0.019297076
116	0xbcad3a17	-0.021145863
117	0x3cdea7b8	0.027179584
118	0xbd688cbc	-0.05677484
119	0x3d84789d	0.06468318
120	0xbcb85c49	-0.022504942
121	0x3df23c03	0.118278526
122	0x3c40d06e	0.0117684435
123	0xbd060316	-0.032717787
124	0xbdc2d80b	-0.09513863
125	0xbcfdcbd0	-0.030980974
126	0x3d75719a	0.059922792
127	0x3baf655c	0.005352659
128	0xbc4a86a5	-0.012361203
129	0xbd803673	-0.06260385
130	0x3d00b7ba	0.031425215
131	0x3c3e0f91	0.011600391
132	0xbd2c2dbc	-0.042035803
133	0xbdb0f887	-0.08641153
134	0xbcfe692a	-0.031056006
135	0x3d207e24	0.039182797
136	0xbde7b67f	-0.11314105
137	0xbd80b50c	-0.06284532
138	0xbd6be677	-0.057592835
139	0xbd24619d	-0.040132154
140	0xbd4af371	-0.04954857
141	0x3d7b8871	0.061409418
142	0x3cff351a	0.03115325
143	0x3c336226	0.010948693
144	0xba0a73a8	-0.00052815164
145	0xbd25fd08	-0.040524513
146	0xbcde9737	-0.027171714
147	0xbddcb7a9	-0.10777218
148	0xbd1e1544	-0.0385945
149	0x3c8eaaf5	0.017415503
150	0x3d1a459b	0.037664037
151	0x3cc7697a	0.024342287
152	0xbce60c0f	-0.028081922
153	0x3d3a2e7c	0.045454487
154	0x3bc23c55	0.0059276023
155	0x3d99d41d	0.075111605
156	0xbd80fbde	-0.0629804
157	0x3d18c1e0	0.03729427
158	0x3d30530c	0.04304795
159	0x3c0b1389	0.008488544
160	0xbc90c12c	-0.017670237
161	0xbbb10dc2	-0.0054032514
162	0xbafb6102	-0.0019178691
163	0xbd75f13b	-0.06004451
164	0xbdf770c5	-0.12082056
165	0xbd4e85a4	-0.05042042
166	0x3cdd605b	0.027023485
167	0x3c3a1b71	0.011359082
168	0x3d84539c	0.0646126
169	0x3ce83034	0.028343298
170	0xbc628b6f	-0.013827189
171	0x3c5d11f7	0.013493053
172	0xbdb29bab	-0.087210976
173	0x3bb51f0c	0.0055273827
174	0xbcaf4e9a	-0.021399785
175	0xbd126572	-0.035741277
176	0xba3fcaea	-0.00073163083
177	0xbd491ce1	-0.049099807
178	0xbde2584e	-0.11051999
179	0xbcb51b03	-0.022107607
180	0x3c72527c	0.014790174
181	0x3d568d0c	0.052380607
182	0x3d7db86c	0.061943457
183	0x3c26f357	0.010189853
184	0x3e0324bb	0.1280698
185	0x3d69adc4	0.05705048
186	0xbba2bcc4	-0.0049663503
187	0x3d4e1dfd	0.050321568
188	0x3d406195	0.04696806
189	0xbd8e2ba7	-0.0694192
190	0x3d8d280c	0.06892404
191	0x3d72b102	0.05925084
192	0xbd7a6d70	-0.061139524
193	0x3e4646b3	0.19362907
194	0x3ddc39e2	0.10753228
195	0x3d3ce13e	0.046113245
196	0x3d75e1bc	0.06002973
197	0xbcab948d	-0.020944858
198	0xbccad8c6	-0.024761569
199	0xbb4d5e6d	-0.00313368
200	0xbd0dd72b	-0.03462903
201	0x3d2dfc5b	0.042476993
202	0x3d910d26	0.07082586
203	0x3d8b9527	0.06815558
204	0x3d37bde6	0.044858836
205	0xbc8d2e67	-0.01723404
206	0xbba10505	-0.0049139285
207	0x3cc1719e	0.023613747
208	0x3babd1ed	0.005243531
209	0xbbca8a96	-0.0061810715
210	0xbb624210	-0.003452424
211	0xbd1e5860	-0.0386585
212	0xbd2515a0	-0.040303826
213	0x3d6c3cd0	0.057675183
214	0xbda979c6	-0.082751796
215	0xbd79de5a	-0.061003067
216	0x3cadb4c5	0.021204362
217	0xbd9b6fe7	-0.07589703
218	0xbd873597	-0.06602018
219	0x3c80e92f	0.01573619
220	0xbc035321	-0.008015425
221	0xbc2136fa	-0.009839768
222	0xba988a24	-0.0011637849
223	0x3c97c24b	0.018525263
224	0x3cbc47d1	0.022983463
225	0xbd7e1a38	-0.062036723
226	0xbe0e2b7b	-0.13883774
227	0xbc3eb8fc	-0.011640783
228	0xbb9323c5	-0.004490348
229	0x3ed4096e	0.41413444
230	0xbd79226c	-0.060823843
231	0xbdad7621	-0.08469797
232	0xbd0bdc29	-0.034145508
233	0xbdfcc6c8	-0.12342602
234	0x3d99a474	0.0750207
235	0x3c69c087	0.0142670935
236	0x3ca3ac8f	0.019979743
237	0xbcc7fc44	-0.024412282
238	0xbd062c84	-0.032757297
239	0x3a44d7a4	0.00075089396
240	0x3d6a1143	0.05714537
241	0x3c92808c	0.017883562
242	0xbd88d0c9	-0.066804476
243	0x3da6e6b5	0.081494726
244	0x3d60dd8c	0.054898784
245	0xbdeb6930	-0.11494672
246	0x3dddb2d0	0.108251214
247	0x3d3e9eb7	0.04653808
248	0xbc3124be	-0.010811983
249	0x3e24cfac	0.16094846
250	0x3ddbaa0d	0.10725794
251	0x3d9f4d01	0.07778359
252	0x3ce4a5eb	0.027911147
253	0x3d0a51db	0.03376947
254	0x3d0ab8ab	0.03386752
255	0x3c3af657	0.011411271

features.4.bias f4 [64]
0	0x3d459105	0.048234005
1	0x3c9369a3	0.017994707
2	0xbd629049	-0.055313382
3	0xbd187ce9	-0.0372285
4	0xbcd0954c	-0.025461815
5	0x3c8112dd	0.015756065
6	0x3d8e58c7	0.06950527
7	0x3cc7a0a5	0.024368593
8	0x3cf23a1e	0.029568728
9	0xbc68a35c	-0.014199104
10	0xbc180cd9	-0.009280407
11	0xbcc64d87	-0.02420689
12	0x3b209ff3	0.00245094
13	0xbd1e8802	-0.038703926
14	0xbd4e5aa1	-0.0503794
15	0xb9d62eb8	-0.0004085207
16	0x3d5bef6f	0.05369514
17	0x3c0796c1	0.008275689
18	0x3d5c6fc7	0.053817537
19	0x3d70ea45	0.058817167
20	0x3d27ed3f	0.04099774
21	0x3bc4ccf0	0.0060058758
22	0x3c5f5ec9	0.013633438
23	0xbd3b37d5	-0.045707542
24	0xbbf231e0	-0.0073911995
25	0x3ca2cb3f	0.019872306
26	0xbd0d242d	-0.034458328
27	0x3b3a3ff1	0.002841946
28	0x3d1d733e	0.03843998
29	0x3d0edf21	0.03488076
30	0x3d6089b8	0.05481884
31	0xbc1ad939	-0.009451204
32	0x3bb4e634	0.0055206064
33	0xbd1532de	-0.036425464
34	0xbcd04ddb	-0.02542775
35	0xbd3bb03d	-0.04582237
36	0x3cb07dba	0.021544326
37	0xbd1384e6	-0.036015414
38	0x3d0eae79	0.03483436
39	0x3d0712f6	0.032977067
40	0xbc957f94	-0.01824931
41	0x3d17ec93	0.03709085
42	0xbcb0ea04	-0.021595962
43	0x3c9c729f	0.019097624
44	0xbca98714	-0.020694293
45	0x3d1b3465	0.037891764
46	0x3d624519	0.055241678
47	0xbc5f409d	-0.013626245
48	0x3cffe2b1	0.031236025
49	0xbd389ed6	-0.045073353
50	0x3d368682	0.04456187
51	0x3d218d0f	0.039441165
52	0x3c19b967	0.009382582
53	0xbd3c957a	-0.04604099
54	0xba755eae	-0.00093601167
55	0xbc7e5011	-0.015522019
56	0x3c009cb3	0.00784986
57	0x3d7d5fe6	0.061859034
58	0xbbee8dda	-0.0072800936
59	0xbb8774c0	-0.0041337907
60	0x3d40efea	0.0471038
61	0x3cead701	0.028666975
62	0xbcdf3905	-0.027248869
63	0xbc4031d4	-0.01173063

features.5.weight f4 [64]
0	0x3f795130	0.9738951
1	0x3f815eab	1.0107015
2	0x3f80499d	1.0022465
3	0x3f8081d0	1.0039616
4	0x3f8031fa	1.0015252
5	0x3f7ab26e	0.9792851
6	0x3f810f8b	1.0082868
7	0x3f7d1edc	0.9887521
8	0x3f7ab059	0.97925335
9	0x3f7c3085	0.98511535
10	0x3f8134e5	1.0094267
11	0x3f7cfca7	0.98823017
12	0x3f824656	1.0177715
13	0x3f7d5769	0.989615
14	0x3f7e0321	0.99223524
15	0x3f81d5de	1.0143392
16	0x3f7eb718	0.9949813
17	0x3f7b7528	0.9822564
18	0x3f83072b	1.0236562
19	0x3f7fad61	0.9987393
20	0x3f8180d7	1.0117444
21	0x3f804de8	1.0023775
22	0x3f81289e	1.009052
23	0x3f7c3ef7	0.98533577
24	0x3f82f7b3	1.0231842
25	0x3f7e5687	0.9935078
26	0x3f7f3b49	0.99699837
27	0x3f8486fb	1.0353693
28	0x3f7d88a9	0.9903665
29	0x3f7eeba1	0.9957829
30	0x3f7e85a8	0.99422693
31	0x3f810c43	1.0081867
32	0x3f803f1c	1.001926
33	0x3f80ff3c	1.0077891
34	0x3f80c1bb	1.0059122
35	0x3f7dad56	0.99092615
36	0x3f83b8d9	1.0290786
37	0x3f84239e	1.032337
38	0x3f7d6903	0.9898836
39	0x3f7d6a2e	0.9899014
40	0x3f7fd47a	0.9993359
41	0x3f76fad7	0.964765
42	0x3f81ee0b	1.015077
43	0x3f7a9216	0.9787916
44	0x3f7b90c7	0.9826779
45	0x3f7e0e07	0.99240154
46	0x3f820574	1.0157914
47	0x3f7b3676	0.98129976
48	0x3f7cefad	0.98803216
49	0x3f825018	1.0180693
50	0x3f8176fb	1.0114435
51	0x3f81c132	1.0137084
52	0x3f7b07e4	0.98058915
53	0x3f80795e	1.0037038
54	0x3f809012	1.0043967
55	0x3f7c78fb	0.986221
56	0x3f82a4ba	1.020652
57	0x3f83b249	1.0288783
58	0x3f8663df	1.0499228
59	0x3f819712	1.0124228
60	0x3f7c0548	0.9844556
61	0x3f7f2ba4	0.99675965
62	0x3f7ae316	0.98002756
63	0x3f80b3ae	1.0054834

features.5.bias f4 [64]
0	0xbd88b03f	-0.06674241
1	0xbd0e596a	-0.03475324
2	0xbd56eeda	-0.05247388
3	0xbd2b01d2	-0.041749783
4	0xbc26ce0c	-0.010180961
5	0xbd10cde6	-0.03535261
6	0xbc7edcf0	-0.015555605
7	0xbd69a018	-0.057037443
8	0xbd77f7a9	-0.06053892
9	0xbd2ac08e	-0.04168754
10	0xbbbd82c7	-0.005783412
11	0xbd7612b3	-0.060076427
12	0xbcb5ef66	-0.02220888
13	0xbd3201d2	-0.043458767
14	0xbcdb195f	-0.026745496
15	0xbca16ac9	-0.01970424
16	0xbcd48073	-0.025940156
17	0xbcba6993	-0.02275542
18	0xbc194e17	-0.009356997
19	0xbc460cd5	-0.01208802
20	0xbc652a5c	-0.01398715
21	0xbcb3840b	-0.021913549
22	0xbb863f50	-0.004096903
23	0xbd4bbc9a	-0.04974041
24	0xbbdfb8c5	-0.006827446
25	0xbd56f0f5	-0.05247589
26	0xbcc4c83e	-0.024021264
27	0xbcf9bcb3	-0.030485487
28	0xbd242c50	-0.040081322
29	0xbd250563	-0.04028834
30	0xbcb8672f	-0.02251014
31	0xbc9a6cb4	-0.018850662
32	0xbd232f65	-0.03984012
33	0xbc3b7d9c	-0.011443522
34	0xbc735220	-0.014851123
35	0xbcc5e6ed	-0.024157966
36	0x3c167cee	0.009185059
37	0xbc93dda4	-0.018050022
38	0xbd15c246	-0.036562227
39	0xbd73974f	-0.05947047
40	0xbcae115d	-0.021248514
41	0xbd403fba	-0.046935774
42	0xbcb6d756	-0.022319477
43	0xbd44c9c8	-0.048043996
44	0xbd3e07d6	-0.04639419
45	0xbd1016f3	-0.035178136
46	0xbc879e42	-0.016554955
47	0xbd7d3750	-0.06182033
48	0xbc8de759	-0.01732223
49	0xbd0170ae	-0.0316016
50	0xbc99eeac	-0.018790565
51	0xbc8c1f60	-0.017104805
52	0xbd629674	-0.055319265
53	0xbd3affbc	-0.045654044
54	0xbb5778f4	-0.003287849
55	0xbd13a19a	-0.036042787
56	0xbc7cdeee	-0.01543401
57	0xbd598462	-0.053104766
58	0xbc9f446d	-0.019441808
59	0xbcb716da	-0.022349764
60	0xbd485f0c	-0.04891877
61	0xbd1c8eb0	-0.038222015
62	0xbd7a8555	-0.06116231
63	0xbccc9625	-0.024973938

features.5.running_mean f4 [64]
0	0x3eff3faf	0.49853274
1	0x3f8bfc1c	1.0936313
2	0xbf8cbd21	-1.0995218
3	0x3ecb564f	0.39714286
4	0x3ee42876	0.4456212
5	0xbf0f865d	-0.560644
6	0xbe9467fb	-0.2898558
7	0xbe038f4f	-0.12847637
8	0xbf7e60a8	-0.99366236
9	0xbf3970a6	-0.7243751
10	0x3e4eaa5a	0.20182171
11	0xbea83985	-0.32856384
12	0x3fc7abf4	1.5599351
13	0xbf78e81a	-0.9722916
14	0xbcd8fed9	-0.026488708
15	0xbf3a657d	-0.7281111
16	0xbf51599b	-0.8177735
17	0xbe91aac1	-0.28450587
18	0xbe6d2afb	-0.23160927
19	0x3e8b4967	0.2720444
20	0xbd69a5d2	-0.057042904
21	0xbe8b24e0	-0.2717657
22	0xbec17805	-0.3778688
23	0x3f1e0e40	0.61740494
24	0xbec21e7f	-0.37913892
25	0xbe115847	-0.14193831
26	0x3e47e348	0.19520295
27	0xbe417833	-0.18893509
28	0x3eeab87d	0.45843878
29	0xbf17b2b2	-0.5925704
30	0x3dc20254	0.094731
31	0xbe23d013	-0.15997343
32	0xbc09b04d	-0.00840385
33	0xbdd83df9	-0.10558695
34	0xbe3f0f7c	-0.1865825
35	0x3f529ec1	0.8227349
36	0x3f49047b	0.7852246
37	0x3e771215	0.24127991
38	0xbf01bc8c	-0.50678325
39	0xbf810569	-1.0079776
40	0x3e5d8204	0.21631628
41	0xbf88af3a	-1.0678475
42	0xbe03f01e	-0.12884566
43	0xbf656db8	-0.8962054
44	0xbf44a76a	-0.76817954
45	0xbf505c60	-0.81390953
46	0xbe459457	-0.19294868
47	0xbff53c98	-1.9159117
48	0xbea1ad36	-0.31577462
49	0x3eb386f3	0.35063896
50	0xbed49cb8	-0.41525817
51	0xbed9ae4b	-0.42515787
52	0x3dc927eb	0.09822067
53	0xbe6e9d5b	-0.23302214
54	0xbbd04d06	-0.006356838
55	0xbe992750	-0.29912806
56	0xbdfcf7ba	-0.123519376
57	0xbd5f38c9	-0.054497514
58	0xbce8d654	-0.028422512
59	0x3e1d9425	0.15388544
60	0x3eea630b	0.4577869
61	0x3f0323df	0.5122661
62	0xbf525d28	-0.82173395
63	0x3ec1e583	0.37870416

features.5.running_var f4 [64]
0	0x3fa05cf4	1.2528367
1	0x3f5a9218	0.8537917
2	0x3fe8f70e	1.8200395
3	0x3f30f087	0.69117016
4	0x3f937d71	1.1522657
5	0x3f8578e2	1.0427516
6	0x3e97f72e	0.2968077
7	0x3f4e6c3c	0.806339
8	0x3fbcaa78	1.4739523
9	0x3f9fff34	1.2499757
10	0x3f16ebae	0.5895337
11	0x3f10f429	0.5662256
12	0x3f1d0849	0.6134077
13	0x40254ca5	2.582803
14	0x3f8275dc	1.0192218
15	0x3f6c3e0a	0.92282164
16	0x3faafaea	1.3357823
17	0x3fb93151	1.4468175
18	0x3f1ffe26	0.62497175
19	0x3ef72919	0.48273543
20	0x3ee7cf92	0.4527555
21	0x3ff6b4f6	1.9273975
22	0x3f8a4291	1.0801564
23	0x3fc029d3	1.5012764
24	0x3f007dfd	0.5019224
25	0x3f411141	0.7541695
26	0x3f1254b8	0.5716052
27	0x3e7d2f76	0.24725136
28	0x3f388dff	0.7209167
29	0x3fa28208	1.2695932
30	0x3f3e1a94	0.74259305
31	0x3f134a2e	0.57535064
32	0x3f0d4f0f	0.5519876
33	0x3f316eeb	0.6930987
34	0x3f949b78	1.1609945
35	0x3f71fe14	0.9452832
36	0x3f5be803	0.85900897
37	0x3f89c3a1	1.0762826
38	0x3f1e203a	0.61767924
39	0x3fb94fb5	1.447745
40	0x3f1147f7	0.56750435
41	0x401b764d	2.4290955
42	0x3f49cfc7	0.7883267
43	0x3f61e6a4	0.88242555
44	0x3fac05af	1.3439234
45	0x3f198cae	0.59980285
46	0x3f24ffb2	0.6445266
47	0x3ff417a3	1.9069713
48	0x3f82bb1d	1.0213352
49	0x3f1e4a82	0.6183244
50	0x3f44f7f7	0.76940864
51	0x3f0c2b60	0.54753685
52	0x3f385b7b	0.7201459
53	0x3f3fc601	0.74911505
54	0x3f0da268	0.5532594
55	0x3f50b94b	0.81532735
56	0x3fa02d98	1.2513914
57	0x3e9be0b2	0.30444866
58	0x3f0a1145	0.539326
59	0x3f58996d	0.8460911
60	0x3fc0c2ec	1.5059485
61	0x3fb600ef	1.4219035
62	0x3fec60d9	1.8467056
63	0x3f1cfbaa	0.6132151

fc.weight f4 [32, 64]
0	0x3d650879	0.055916283
1	0xbcbfe122	-0.023422781
2	0x3d118ce9	0.035534773
3	0xbdc87a41	-0.09788943
4	0x3dd4e0d7	0.10394447
5	0xbd9b5626	-0.07584791
6	0x3ddf3958	0.10899609
7	0x3c233221	0.009960682
8	0x3d150356	0.036380135
9	0xbaffecf3	-0.0019525572
10	0x3dd5d302	0.10440637
11	0xbe26c1d5	-0.16284879
12	0xbd529fef	-0.051422056
13	0xbb906acd	-0.004407263
14	0x3d696c83	0.05698825
15	0x3dfde55a	0.12397261
16	0xbdbfe657	-0.09370106
17	0x3e12c555	0.14333089
18	0x3df4cb7a	0.119528726
19	0xbc9cd1da	-0.019143034
20	0xbe101d0d	-0.14073582
21	0xbdc59402	-0.09647371
22	0xbdd6bd23	-0.10485294
23	0x3c1e6525	0.009667669
24	0x3c418300	0.011811018
25	0x3d36c98e	0.04462581
26	0xbe100118	-0.14062917
27	0x3d24b99e	0.04021608
28	0xbdc86b8d	-0.09786139
29	0xbd85d185	-0.06534103
30	0xbd9a4728	-0.07533103
31	0x3dfeeebb	0.12447878
32	0x3da5088a	0.08058269
33	0xbd4abcf9	-0.049496625
34	0xbdbf8957	-0.09352367
35	0xbd8e1c25	-0.06938962
36	0x3bcd7f39	0.0062712696
37	0xbde381b6	-0.11108725
38	0x3dea66df	0.11445402
39	0x3dba941f	0.09110283
40	0x3ceec815	0.02914814
41	0x3df5e30f	0.120061986
42	0xbd191c75	-0.037380654
43	0xbd527c87	-0.05138829
44	0xbd39f55a	-0.0454
45	0xbd80e818	-0.06294268
46	0xbc643827	-0.013929403
47	0xbd2f5069	-0.042801294
48	0xbc12345a	-0.008923614
49	0xbe06f67a	-0.13179961
50	0x3ddc2b4f	0.10750448
51	0xbd14f69e	-0.036368005
52	0x3df32259	0.11871786
53	0x3d8e9134	0.06961289
54	0xbdca80ba	-0.09887834
55	0x3de80b60	0.113302946
56	0xbe12c7a2	-0.14333966
57	0x3d6f5b3e	0.058436625
58	0x3d628624	0.055303708
59	0xbc1a4d21	-0.009417803
60	0x3dee04e4	0.116220266
61	0xbe0adbef	-0.1356046
62	0x3d95d95c	0.07316849
63	0x3e007d90	0.12547898
64	0xbcfd3e46	-0.030913483
65	0xbd883a9f	-0.06651806
66	0x3c59ec67	0.013300992
67	0x3dd1adfb	0.10238262
68	0x3e06398d	0.13107891
69	0x3dfa6883	0.12226965
70	0x3d1221a2	0.035676606
71	0xbd661f8a	-0.05618242
72	0xbd0f21d7	-0.03494438
73	0x3c580bdb	0.01318642
74	0x3d6bf60c	0.057607695
75	0xbcbbbcee	-0.022917237
76	0x3df02fab	0.11727842
77	0xbd4eceb6	-0.050490104
78	0xbcf9957f	-0.030466793
79	0x3d861581	0.0654707
80	0x3d81e4b3	0.06342449
81	0xbddd93ef	-0.10819232
82	0x3d4e4cba	0.05036614
83	0x3d47aaf0	0.048747003
84	0x3bf6a8d9	0.0075274524
85	0xbd50256b	-0.050816935
86	0x3d3d14d9	0.04616246
87	0x3d5dea4c	0.05417852
88	0x3e194419	0.14967383
89	0x3d9ae340	0.07562876
90	0xbd4e905e	-0.050430648
91	0xbdedbc73	-0.116082095
92	0xbb8fd596	-0.004389475
93	0xbc310487	-0.010804302
94	0xbe151ce6	-0.14561805
95	0x3d623a07	0.05523112
96	0x3df9f3fc	0.122047395
97	0xbe0210f2	-0.12701777
98	0xbd2110c0	-0.039322615
99	0xbd8e0f09	-0.069364615
100	0x3e11113f	0.14166735
101	0x3dd4f354	0.10397974
102	0xbdbe8aa8	-0.0930379
103	0xbdd6f49e	-0.10495876
104	0xbd9b97e7	-0.075973324
105	0x3ddb51d3	0.10708966
106	0xbe03bc61	-0.1286483
107	0xbbda770d	-0.006667024
108	0xbd45d862	-0.04830206
109	0xbd60e1a2	-0.05490268
110	0x3d946280	0.0724535
111	0xbd49bd25	-0.049252648
112	0x3c56c73b	0.013109024
113	0xbd7e474c	-0.062079713
114	0x3c778c9c	0.0151092075
115	0x3d096a5c	0.033548698
116	0x3a518d17	0.00079937413
117	0xbda1376b	-0.07871898
118	0xbda30a86	-0.079609916
119	0xbe0da347	-0.13831817
120	0x3c1f31d6	0.009716472
121	0xbe14d540	-0.14534473
122	0xbdbf7d80	-0.09350109
123	0x3cdeb369	0.027185159
124	0x3d856760	0.06513858
125	0x3d00ca81	0.031443123
126	0x3daee56d	0.08539853
127	0x3d6903dc	0.056888446
128	0x3a2f110c	0.00066782604
129	0xbd4f7fa2	-0.05065883
130	0xbdcef91c	-0.101061076
131	0xbbc1a7c1	-0.0059098904
132	0x3e12c8f1	0.14334466
133	0xbd001f30	-0.031279743
134	0xbbb64bd5	-0.005563239
135	0xbc665600	-0.01405859
136	0x3beec739	0.007286933
137	0xbd86a375	-0.06574146
138	0x3e0972e7	0.13422738
139	0xbda46a8d	-0.080281354
140	0xbda11d80	-0.07866955
141	0x3dbf6355	0.09345118
142	0x3de1e2d5	0.11029593
143	0xbd30734d	-0.04307871
144	0x3d73dddf	0.059537765
145	0xbdd55d1e	-0.10418151
146	0xbe11f0b7	-0.14251982
147	0x3e04798f	0.12936996
148	0xbdd84cee	-0.10561548
149	0xbc7a5a5e	-0.015280334
150	0x3dbf570d	0.093427755
151	0x3c6719d0	0.014105275
152	0xbcd8aa35	-0.026448349
153	0x3cffb050	0.031212002
154	0x3ce3b7a8	0.027797535
155	0xbb310e35	-0.0027016525
156	0x3ded438c	0.11585149
157	0xbdfab5ed	-0.12241731
158	0xbd718dd3	-0.058973145
159	0xbdb56b9a	-0.08858414
160	0x3d3828f1	0.04496092
161	0xbda7b8e5	-0.08189563
162	0xbbf1ddd5	-0.0073811808
163	0xbdd89906	-0.10576062
164	0x3d37f4d3	0.044911217
165	0x3db3c458	0.08777684
166	0xbce77b91	-0.028257163
167	0xbdd315d7	-0.103069
168	0x3dead2f0	0.114660144
169	0xbdae9990	-0.085253835
170	0x3d5243f1	0.051334325
171	0x3cd183a9	0.025575476
172	0x3d4b6ce9	0.04966441
173	0xbe06e103	-0.13171773
174	0x3d632692	0.055456705
175	0xbda677cc	-0.08128318
176	0x3e0149b4	0.12625772
177	0x3df11f7c	0.11773583
178	0x3c979023	0.018501347
179	0xbddb1391	-0.10697091
180	0xbd06e60e	-0.03293424
181	0x3d3c8831	0.04602832
182	0xbd2f3ec5	-0.04278447
183	0x3d6038ca	0.05474166
184	0xbd46f952	-0.048577614
185	0x3d9f6088	0.07782084
186	0x3e014aca	0.12626186
187	0xbdef2319	-0.11676616
188	0xbdde5394	-0.10855785
189	0x3d215a67	0.039392855
190	0x3d84f30d	0.06491671
191	0x3d3e9571	0.046529237
192	0xbdcce369	-0.100043125
193	0x3defe9e4	0.11714533
194	0x3dc3c6cc	0.09559402
195	0x3bf7a210	0.007557161
196	0xbd644a6c	-0.055735037
197	0xbd6c226c	-0.057650015
198	0xbdb03eae	-0.08605705
199	0xbdcb6b8a	-0.09932621
200	0xbdd9e8d0	-0.106401086
201	0x3b9de77c	0.004818855
202	0xbca8a883	-0.020588165
203	0xbd4b4b06	-0.049632095
204	0x3e150a8c	0.14554805
205	0xbd7500d1	-0.05981523
206	0x3c9be6d7	0.019030971
207	0x3d34c822	0.044136174
208	0xbdd76a10	-0.10518277
209	0x3d193574	0.037404492
210	0x3da48ebd	0.08035038
211	0x3cf8f61a	0.030390788
212	0xbc748f10	-0.014926687
213	0xbdf1f0be	-0.11813496
214	0x3db73842	0.08946277
215	0x3d024578	0.03180453
216	0xbd4e95ad	-0.05043571
217	0xbc809268	-0.015694812
218	0x3bdae267	0.0066798213
219	0x3da3a3f8	0.07990259
220	0xbe0e1092	-0.13873509
221	0xbdbb8370	-0.09155929
222	0x3da1b92e	0.07896648
223	0x3d4f9482	0.050678737
224	0x3d973dcf	0.07384836
225	0xbd88c1a7	-0.06677561
226	0xbdff52d1	-0.12466968
227	0xbdb3a8b6	-0.087724134
228	0x3e0fae33	0.14031295
229	0x3e0c6269	0.13709415
230	0xbde3e658	-0.11127919
231	0x3ddf167b	0.1089296
232	0x3bef68b4	0.0073061828
233	0x3da66a4e	0.08125745
234	0x3ccca1df	0.02497953
235	0xbdb9ac71	-0.09066094
236	0xbd7d036a	-0.061770834
237	0xbdf0f131	-0.117647536
238	0x3dceceb4	0.10098019
239	0xbde23f0e	-0.11047183
240	0xbdcadc4e	-0.09905301
241	0xbd7e2d81	-0.062055115
242	0xbe0d2bc0	-0.1378622
243	0x3e05b65d	0.13057847
244	0xbd0298c1	-0.03188396
245	0xbda71392	-0.081580296
246	0x3d880107	0.06640821
247	0x3d86b9f6	0.06578438
248	0x3dae691f	0.08516144
249	0xbcc7ed35	-0.024405101
250	0x3e1556b1	0.14583851
251	0x3db9f6ee	0.09080301
252	0xbcfff48e	-0.031244542
253	0x3cff89a3	0.03119356
254	0xbdd5223b	-0.104069196
255	0x3d81a86d	0.06330953

fc.bias f4 [32]
0	0x3dd8617d	0.105654694
1	0x3d54b93e	0.051934473
2	0x3c25fb57	0.010130725
3	0xbc69349f	-0.014233737
4	0xbb4dea43	-0.0031420148
5	0xbd8448fc	-0.06459233
6	0xbdb39d75	-0.08770267
7	0x3d6827e2	0.05667866
8	0x3c94cb81	0.018163444
9	0xbd588694	-0.05286272
10	0xbd02b2ab	-0.031908672
11	0xbdc7c2af	-0.0975393
12	0xbd436faa	-0.047713913
13	0x3d1a757a	0.03770969
14	0xbda04248	-0.07825142
15	0xbc93b2d9	-0.018029617
16	0x3e14ea96	0.14542612
17	0xbc3fca87	-0.011706001
18	0x3d6975da	0.056997158
19	0xbd6ce36c	-0.057834074
20	0xbdf2e1a0	-0.11859441
21	0xbd677798	-0.056510538
22	0x3dd4d3e5	0.10391978
23	0x3d945016	0.07241838
24	0xbdffa85c	-0.12483284
25	0x3d9d7272	0.07687844
26	0x3e0c170c	0.13680667
27	0x3dc59750	0.09648001
28	0xbe03a8a1	-0.12857296
29	0xbd0dcea1	-0.034620885
30	0xbd1aa569	-0.037755404
31	0x3c03cb1a	0.008044029
