model/best_model_batch_greyscale_8bin.pt (torch, 91398 bytes, 14 tensors)

features.0.weight f4 [32, 1, 3, 3]
000000 ac 77 9f be d1 e2 92 3d df 95 94 3e 82 e8 57 be
       -0.3114599 0.07172168 0.29020593 -0.21084788
000010 c3 4b aa be 51 c2 73 bd 33 ee a1 3e dc d7 e7 bd
       -0.33260927 -0.059511486 0.31627044 -0.11320469
000020 e9 78 c5 3d 8e 74 fd 3d f2 38 a9 3e fa 01 e4 bd
       0.096422024 0.12375747 0.33051258 -0.111331895
000030 83 ff f7 3d 50 c0 72 3e 8f 0b 31 3e 3c 69 93 3e
       0.12109282 0.23706174 0.17289566 0.28791225
000040 4d 3e a6 bd 27 7f 76 be 17 3f 5a bd a3 7f 7f 3e
       -0.08117352 -0.24071942 -0.053282823 0.24951033
000050 b0 6b 64 3e e6 62 b2 bd 97 3f 23 be 53 aa ef 3d
       0.22306705 -0.0871027 -0.15942226 0.11702409
000060 04 5d 2f be 00 9c 29 3d b7 01 6e 3d 09 12 e4 bc
       -0.17125326 0.04140854 0.058107104 -0.027840631
000070 14 70 df 3d 2b 71 9d 3d 67 6d 81 3e df f9 0d 3e
       0.10910049 0.07687601 0.2527878 0.1386485
000080 05 f3 fc 3d 37 f7 a9 3e 6a c7 1f be 8e d8 68 3e
       0.1235104 0.33196422 -0.15603414 0.22738859
000090 18 5a 06 be e3 33 00 be 57 bb 8a 3d 2d b2 79 be
       -0.13120306 -0.12519793 0.067740135 -0.24384375
0000a0 28 4e 8d be ac 2c 90 3e ea a9 d3 bd 57 67 1b be
       -0.2759869 0.28159082 -0.10335143 -0.1517614
0000b0 ca a6 16 be 85 d5 a0 3e ca e9 8b be a8 79 34 3e
       -0.14712062 0.31412902 -0.27326804 0.17624533
0000c0 c7 31 71 3e 7a 8a 6e 3d c3 99 da bd 7b 77 a3 be
       0.23554145 0.05823753 -0.10673859 -0.31927094
0000d0 74 1a 42 bc 54 d8 92 be c8 58 61 3d 7c 94 a9 bc
       -0.011847127 -0.2868067 0.05501631 -0.020700686
0000e0 06 ec e8 3d 2a 18 f6 3d fd e7 71 be c3 92 0b be
       0.11373143 0.12016328 -0.23623653 -0.13630204
0000f0 28 79 a4 be e6 e9 38 3e 8e ed 90 3e 92 df aa 3e
       -0.32123685 0.18057975 0.2830624 0.33373696
000100 08 25 c2 3c 67 63 67 be 97 89 13 3e 14 3c 87 3e
       0.023699299 -0.22596513 0.14407955 0.26413023
000110 53 bb 19 bd 81 6f 64 3d ff 0d 66 3e ff 7c 43 be
       -0.037532162 0.0557704 0.22466277 -0.19090651
000120 16 a2 87 3e a2 10 65 3e eb bd 9d be 6b 3b 82 3e
       0.2649085 0.22369626 -0.30808958 0.25435957
000130 d5 f3 31 be 55 65 02 be 0e d9 da 3a d5 a1 8e be
       -0.17378171 -0.12733968 0.0016696767 -0.27857843
000140 80 2a a3 3e 99 54 1c 3e 4d 2c bb 3c 82 9c 59 3e
       0.31868362 0.15266646 0.022848273 0.21251109
000150 65 88 49 bd 87 dd 80 3b 08 79 71 be f9 62 c1 bd
       -0.04920234 0.003932658 -0.23581326 -0.09442706
000160 c0 88 0c be e4 fa 80 bc ee 88 91 3e ea e0 9b 3d
       -0.13724041 -0.015744634 0.28424782 0.07611258
000170 e4 11 12 bd 98 cd 6b 3d eb 81 44 3d d2 4c d1 bd
       -0.035661593 0.057569116 0.047975462 -0.102197304
000180 2d a3 a3 be 27 8c 5f 3e 3a a2 e1 3d f1 f0 4d be
       -0.3196043 0.21830808 0.110172704 -0.20111443
000190 64 f6 40 3e 0b 79 32 3c dd ef 13 be 9e 64 60 3e
       0.1884399 0.010893117 -0.1444697 0.21913382
0001a0 91 15 a5 3e 16 d8 9f be b4 93 9b be e7 54 87 be
       0.32243016 -0.31219548 -0.30386126 -0.26431963
0001b0 f4 6c 90 3e 05 71 5b 3e 5d da 70 3d 8d 7e f1 3c
       0.28208125 0.21429832 0.058801997 0.02947929
0001c0 12 cd 18 be d8 b0 91 3e a9 2f 60 3e 22 48 64 be
       -0.14921978 0.28455234 0.21893181 -0.22293141
0001d0 aa 52 84 3e 0f 43 9d be c9 d1 38 3e 53 0c 38 3e
       0.25844318 -0.30715224 0.18048777 0.17973451
0001e0 bd c8 ad 3b 09 cc 90 3e 7b ba a9 3e 47 d8 6f bd
       0.005303471 0.28280666 0.33150086 -0.058555868
0001f0 38 c2 8c be 01 97 e3 3c b3 01 cd bd 54 5a 4f 3e
       -0.27491927 0.027781965 -0.1001009 0.20249301
000200 cd c7 1a be e9 53 c3 bc 8d 87 3b 3e b5 2f 77 be
       -0.1511528 -0.023843722 0.18313427 -0.24139293
000210 40 e4 8f 3e 2b 38 61 3e 30 c5 54 bd 22 3a 06 bd
       0.28103828 0.21994083 -0.051945865 -0.032770284
000220 43 46 25 be dc 46 68 be b6 e7 b7 3d ba c0 ce 3d
       -0.16140084 -0.2268328 0.08979742 0.100953534
000230 a6 f6 3c be 13 69 6e bd d7 e2 9f 3c 11 57 8e 3e
       -0.18453464 -0.058205675 0.019517345 0.278008
000240 3a 63 14 be 25 52 c1 bd 24 3e a1 3d 20 f2 47 3e
       -0.14490977 -0.09439496 0.078731805 0.19525957
000250 05 38 2a 3e 79 bd 89 be 00 45 b2 3d ca 09 78 3e
       0.16622932 -0.2690237 0.08704567 0.24222484
000260 86 5e 92 be f4 17 83 3e 1f 16 63 3d 9a 43 43 be
       -0.2858774 0.25604212 0.05544102 -0.19068757
000270 57 42 66 3e 42 9a a8 3e bc fe 39 3e 9b ec 7d 3c
       0.22486244 0.3293019 0.1816358 0.015498306
000280 85 35 9e be b4 13 a0 3e dc 0b 80 be 99 83 a2 3e
       -0.30900207 0.31265032 -0.25009048 0.31741026
000290 97 77 99 3e 06 4d 9b be a9 b8 06 3e 43 71 10 3e
       0.29974052 -0.30332202 0.1315638 0.14105706
0002a0 82 cf 22 3c 3a 03 ac 3c 33 86 1e be 5f 3c 9e bd
       0.009937169 0.020997632 -0.1548088 -0.077263586
0002b0 cd 63 18 3e e3 cf 9d 3e 72 2c 6f 3e d2 7b 8a be
       0.14881821 0.30822667 0.23356798 -0.27047592
0002c0 34 70 37 3e e4 2e f8 bd d4 59 0d be 86 f1 0c 3e
       0.17913896 -0.12118319 -0.13803798 0.13764009
0002d0 a5 1c 11 3e c3 8c 91 3e e2 7a 0f be 7a b5 56 bd
       0.14171083 0.28427705 -0.1401172 -0.052419163
0002e0 f5 a1 00 3e ff 29 a2 3e 37 82 9b 3e f8 5b 53 be
       0.12561782 0.31672665 0.30372784 -0.20640552
0002f0 8e 9c 6c 3e 91 43 60 3e 17 9d 0b 3e a2 a0 a7 3c
       0.23106596 0.21900775 0.13634144 0.020462338
000300 3b 73 4c be 40 ed 41 3e 8f 42 49 be 3c 04 9f be
       -0.19965832 0.1893816 -0.19654296 -0.31057918
000310 f5 66 64 3e cb 2a 89 be 26 5f dc bb 42 f0 ec 3d
       0.223049 -0.2679046 -0.0067252098 0.11569263
000320 c2 cd c6 3d de 2c fa 3d 20 a6 33 3e f9 d8 d3 ba
       0.09707214 0.12215589 0.1754384 -0.0016162685
000330 f5 57 6c ba 0c a1 97 3c 00 7d 54 bd ac ae 56 3e
       -0.0009015792 0.01850941 -0.05187702 0.2096507
000340 de f1 4a 3e 3e 44 7a 3e 85 ab 33 3e 73 94 92 bc
       0.19818828 0.24440095 0.17545898 -0.017893052
000350 4b 9e 29 3e ed a6 eb bc 89 07 7e be ee 7c 54 be
       0.1656429 -0.02876612 -0.24807562 -0.20750782
000360 30 30 5e bd 6a 00 13 bd 1e 6b 8e 3e bd 1e 53 bd
       -0.054245174 -0.035889067 0.278161 -0.051542986
000370 50 db a4 3e 02 c1 6f be ab 5e 09 3e 58 3c 47 be
       0.32198572 -0.2341347 0.13415019 -0.19456613
000380 30 da 81 be 82 9e 07 3e d7 dd 75 3d fd 6c 0b 3e
       -0.25361776 0.1324406 0.060026016 0.13615794
000390 c5 f7 39 3e de c7 cf bc 68 c5 2b 3e 59 cd 77 3e
       0.18160923 -0.025363859 0.16774523 0.24199428
0003a0 82 69 3b be 76 be d7 3d 70 20 db bd 53 f2 a2 be
       -0.18301967 0.105343744 -0.10699546 -0.31825504
0003b0 19 0e a1 3e 3f 8c 7d 3c 0c 2a 7e 3e a6 0f 6b 3e
       0.31456068 0.015475332 0.24820727 0.22955188
0003c0 7f bf 55 be f6 33 95 3e 58 11 8a 3d b6 42 aa 3e
       -0.20873831 0.29141206 0.06741589 0.3325402
0003d0 48 50 a7 3e 4f 8e 73 bd 48 74 a4 be ca af 0b be
       0.32678437 -0.059461888 -0.32119966 -0.13641277
0003e0 1d 31 7b bd 23 1d d5 3d de a6 5a 3e 71 b5 99 be
       -0.061326135 0.10405948 0.21352717 -0.3002124
0003f0 c8 ee 05 3e 47 8d 44 be ce 98 85 3c 0d b4 b3 bd
       0.13079369 -0.19194518 0.016308215 -0.08774576

features.0.bias f4 [32]
000000 f4 bf 29 3e f6 ad e9 3d 84 fb a1 be 13 84 7c 3e
       0.1657713 0.114101335 -0.31637204 0.24659757
000010 fa 3b 34 be 18 4a 2d be 7a 92 63 3d c1 b9 94 be
       -0.17601004 -0.16922796 0.055559613 -0.2904797
000020 9e ea 89 be 0e 81 00 bd 9e 22 66 3e f5 43 78 bd
       -0.2693681 -0.031373076 0.22474143 -0.060611684
000030 f9 34 8a 3e 69 84 7c 3e 56 9a 72 3d a4 a2 a0 be
       0.2699354 0.24659885 0.059229217 -0.31374085
000040 4e 85 91 3e f1 37 8c 3e 22 b6 a7 3d b3 36 81 3e
       0.28422016 0.2738643 0.08189036 0.25237045
000050 73 19 18 3e 7b ff 7b be f3 28 2d be 59 d9 a2 3e
       0.14853458 -0.24609177 -0.16910152 0.31806448
000060 f0 21 48 be 6e 95 80 bd 7b 1f 4d 3e bc 62 9e be
       -0.19544196 -0.062785015 0.2003154 -0.30934703
000070 96 f5 07 bd 53 6a 0c 3e f4 18 fa 3d 5f b7 6f be
       -0.033193193 0.13712434 0.12211791 -0.23409794

features.1.weight f4 [32]
000000 bc 3c 7e 3f c4 a3 7f 3f dd 69 80 3f 20 48 80 3f
       0.99311423 0.9985926 1.0032307 1.0022011
000010 a0 d1 81 3f 0a 5c 80 3f fa 18 80 3f 48 a2 7e 3f
       1.0142097 1.0028088 1.0007622 0.9946637
000020 d2 35 7d 3f 56 53 7f 3f 03 5e 80 3f b5 64 81 3f
       0.9891025 0.99736536 1.002869 1.0108858
000030 e2 85 7e 3f 79 a4 80 3f 6c b5 80 3f 0e 0f 7e 3f
       0.9942304 1.0050193 1.0055366 0.9924172
000040 ca 2a 80 3f 66 b3 7e 3f c3 55 7c 3f b1 70 80 3f
       1.0013058 0.9949249 0.9856836 1.0034391
000050 e4 4d 7e 3f 7e da 80 3f 60 07 80 3f c4 12 81 3f
       0.993376 1.0066679 1.0002251 1.0083852
000060 d4 27 80 3f ce e7 7d 3f 5a 1c 7e 3f 86 ad 80 3f
       1.0012155 0.9918183 0.9926201 1.0052955
000070 e5 f7 80 3f 70 bd 7f 3f 79 25 81 3f 33 80 81 3f
       1.0075651 0.99898434 1.0089561 1.0117248

features.1.bias f4 [32]
000000 97 e8 8d bb 4d 56 16 bc 9a 7a 84 3b d0 0f e0 bb
       -0.0043307054 -0.009175849 0.0040429356 -0.0068378225
000010 81 a6 db b9 68 79 b2 b8 f4 a0 f9 b9 cf 46 02 bc
       -0.0004189499 -8.510315e-05 -0.000476129 -0.007951452
000020 74 09 27 bc 05 88 20 bc fa 82 2d bb 17 25 08 3c
       -0.010195125 -0.009798055 -0.0026475773 0.008309624
000030 09 b9 08 bc 65 fd ca ba 42 1d f9 3b 98 20 bc bb
       -0.008344897 -0.0015486894 0.0076023648 -0.00574119
000040 b2 3d 58 bb e0 90 39 3b 57 67 59 bc c2 38 09 bc
       -0.0032995758 0.0028315112 -0.013269267 -0.0083753485
000050 25 3c bb bb 03 ff 7c bb 03 3a 57 bb 6d 27 b6 3a
       -0.005713957 -0.0038604147 -0.0032840974 0.0013897248
000060 10 8c 0c bc db 37 c6 bb f9 31 90 bb d2 c3 98 3b
       -0.008578315 -0.006049139 -0.0044004885 0.0046620155
000070 0c 58 53 bb 59 73 8d 3a aa 54 01 3b 18 29 00 3c
       -0.0032248525 0.0010791823 0.0019734302 0.0078222975

features.1.running_mean f4 [32]
000000 d2 30 12 3e 42 06 43 3e f2 d5 97 be 58 5b b0 3e
       0.14276436 0.19045356 -0.29655415 0.3444469
000010 e2 b5 80 be f1 2f 41 be 58 b8 71 3d 41 5c 72 be
       -0.25138766 -0.18865944 0.059013695 -0.23668005
000020 99 be 81 be a8 d8 34 bd 74 c1 82 3e 75 6e d6 bd
       -0.25340727 -0.044151932 0.25538218 -0.10470287
000030 79 90 b7 3e 41 57 8f 3e 7a 86 b4 3d 82 ce a8 be
       0.3585241 0.27996257 0.08814712 -0.32970053
000040 d8 60 90 3e f9 f9 b4 3e 55 47 cf 3d 57 d9 93 3e
       0.28198886 0.35346964 0.101210274 0.28876755
000050 41 95 75 3e 21 af 86 be 66 9e 01 be a0 b4 b9 3e
       0.23982717 -0.26305488 -0.1265808 0.36270618
000060 b5 78 50 be ad 0a 3c 3c 3b b5 7e 3e a5 ce 99 be
       -0.20358546 0.011477155 0.24873821 -0.3004047
000070 57 c7 8c bd 65 69 5b 3e 68 fe 0b 3e e2 9c a3 be
       -0.068739586 0.21426924 0.13671267 -0.3195563

features.1.running_var f4 [32]
000000 55 c9 19 3d 1a ba 25 3d 32 89 9f 3c 7b a4 08 3d
       0.03754552 0.040460683 0.0194746 0.033359986
000010 c0 66 13 3d 2a bc fa 3c f1 37 87 3c d5 8a 16 3d
       0.035986662 0.030607302 0.016506167 0.036753494
000020 b4 14 f6 3c 03 dd 59 3c 31 93 96 3c 3e 5c 49 3d
       0.030039169 0.013297322 0.018380733 0.049160235
000030 50 3a 05 3d 14 2e 21 3d ed 36 cf 3c b9 1f 98 3c
       0.032526314 0.039350584 0.025294745 0.018569814
000040 f3 85 b8 3c 70 37 3c 3d 01 bc 12 3d 5f 75 c3 3c
       0.02252481 0.045951307 0.035823826 0.023859678
000050 2d cc 13 3d 53 ec d6 3c f0 b9 1b 3c ba df 1b 3d
       0.03608339 0.026235735 0.00950478 0.03805516
000060 95 d0 a8 3c b2 50 9e 3c 5e 60 17 3d 04 5d 08 3d
       0.020607272 0.019325588 0.036957137 0.03329183
000070 f2 1e 8c 3c 33 3c 04 3d da 0c 9f 3c 7a 26 69 3d
       0.0171046 0.032283973 0.019415308 0.05692146

features.4.weight f4 [64, 32, 3, 3]
000000 7c f1 87 3c 36 64 4a bd 88 19 60 3d 8c e2 76 3c
       0.01659464 -0.049411975 0.05471185 0.015068661
000010 fd 48 64 bd f1 1f 24 bd 82 e7 42 3c 47 41 02 bd
       -0.05573367 -0.040069524 0.011896016 -0.031800535
000020 9c 3f bc bb 35 85 19 bd cd 27 f1 bc 28 c5 61 bd
       -0.0057448875 -0.03748055 -0.029437924 -0.055119663
000030 2f 8e 1c bd d5 e7 89 3d b8 26 54 3d 89 35 71 bd
       -0.038221534 0.067336716 0.051794738 -0.058888946
000040 51 35 e6 bc 4b a7 9b bc b1 ab 07 bc a8 e3 a1 bc
       -0.028101595 -0.01900067 -0.0082806805 -0.019761875
000050 13 ea 80 bc a7 57 df bc bb d8 47 bd 64 b5 ce 3c
       -0.015736615 -0.027263476 -0.048790675 0.025232978
000060 ab 07 3a bd ac c6 a4 3c 30 d6 6a b9 c4 70 c3 ba
       -0.04541747 0.020114265 -0.0002239577 -0.0014910926
000070 8c 0e 19 bd 1f b9 15 3c c6 41 0e 3c d3 c9 6a 3d
       -0.03736739 0.009138375 0.008682674 0.05732138
000080 61 ab 95 3c 22 5f 23 3c 74 34 6a bd 45 80 30 3d
       0.018270196 0.009971412 -0.05717893 0.043091077
000090 80 60 7d bc f7 f4 27 3d 63 dd 01 bd 21 93 20 bd
       -0.015464902 0.0410051 -0.03170527 -0.039202813
0000a0 d4 5e 33 3c 34 cc 84 bd 51 33 51 bd a6 ad 0e bb
       0.010947902 -0.06484261 -0.05107433 -0.0021770983
0000b0 61 2e 27 3d 93 ef fc bc 9f df c7 bc b4 21 df 3b
       0.040815715 -0.030875957 -0.024398623 0.0068094376
0000c0 f9 db 55 3d be 01 06 3d 98 a5 31 bd 9d 7f 33 bc
       0.052211735 0.032716505 -0.043370813 -0.010955718
0000d0 96 14 69 3b c7 d8 b3 bc a9 f7 3c 3b 14 1e 2e 3d
       0.0035565249 -0.021953953 0.002883414 0.042509153
0000e0 2a cd b4 bc 79 08 5f 3b e7 9d 89 bc cc 81 da bc
       -0.022070486 0.003403215 -0.016798927 -0.02667322
0000f0 b5 dd af bb dd 4c 4d bc b3 ab e4 3c 60 19 01 bd
       -0.0053670057 -0.012530533 0.027913904 -0.03151834
000100 38 38 53 bd d7 59 e7 bc 99 01 d5 3c 35 64 26 3d
       -0.051567286 -0.028241081 0.026001738 0.04062291
000110 26 7e 46 3d dd 09 02 bd 7b 85 1f bd 10 a4 39 bd
       0.04846015 -0.031747688 -0.038945656 -0.045322478
000120 6d 66 22 3d a9 89 27 bd 0c 76 c2 bc c3 2f 33 3c
       0.039648462 -0.040902767 -0.02373793 0.01093668
000130 b8 dc 3b bd 4c ba 41 3d 0c 66 36 bd d4 8d f2 bb
       -0.04586479 0.047296807 -0.044530913 -0.007402161
000140 d2 26 16 3b d4 7e d2 bc 86 c3 8e bb d3 22 a9 3c
       0.0022911322 -0.025695242 -0.0043568043 0.020646488
000150 e3 7e 4c 3c 9d ea 10 3d 24 ba c7 bc b0 28 37 3d
       0.012481424 0.035379995 -0.024380751 0.044716537
000160 0b d8 a1 bc 38 af 13 bd c5 79 58 3d 11 b1 d9 bc
       -0.019756338 -0.036055773 0.052850503 -0.02657369
000170 6c 0c 44 3d b8 85 55 bc 72 b9 68 bd 42 a4 1f bd
       0.04786341 -0.013032369 -0.05681748 -0.038975008
000180 3e 03 cc ba 16 17 31 3d 7c dd 28 bd a9 e7 8d 3c
       -0.0015564931 0.043234907 -0.04122685 0.017322378
000190 fd 33 0f bd d6 8a 3c 3d 18 8d 63 3c 3e 1b d9 bc
       -0.03496169 0.04603084 0.01388862 -0.026502248
0001a0 79 89 29 bc 34 06 0f bd 0b 63 31 3d 58 fa 60 bd
       -0.010347717 -0.034918025 0.043307345 -0.054926246
0001b0 1f bf ed 3c e4 ea 13 3c e5 e6 cd b9 72 aa b1 bc
       0.029021798 0.00902817 -0.00039272677 -0.02168772
0001c0 f4 b1 af 3b 2d 3d 7f bd 16 00 2e bd 4d 90 c7 3c
       0.00536179 -0.0623142 -0.04248055 0.0243608
0001d0 88 3d 4b 3d 84 28 e4 3b 43 b3 46 3d e5 99 5a 3d
       0.049619228 0.0069628377 0.0485108 0.05336942
0001e0 c2 f0 60 3d 68 ae 4f bd b0 9b b4 3c 53 b0 3a 3d
       0.054917105 -0.050703436 0.022046894 0.045578312
0001f0 9c c6 9a 3c ca ad 5b bd 62 ff 6f 3d 28 9a 20 3d
       0.018893532 -0.053632535 0.05859316 0.039209515
000200 1f 8d ab 3c be 63 06 bd 9b 8a 63 bc 39 22 01 bc
       0.020941315 -0.032809965 -0.013888027 -0.0078816945
000210 6c 3a 8d bc d6 f9 ce bc 7e 68 a0 3c a9 65 50 3d
       -0.017239772 -0.025265615 0.019581076 0.0508782
000220 80 fa 4d bd 11 fc 6d bd a3 7c 74 3d 9d 83 54 bc
       -0.050287724 -0.058101717 0.059689175 -0.012970832
000230 b7 e8 60 bd 6a ea fc 3c 5b 9b 49 bd a6 4a a1 3c
       -0.054909434 0.030873496 -0.049220424 0.019688915
000240 f1 fe 2c 3d 13 24 de bc 45 7e 62 3d a9 b4 5b 3d
       0.04223532 -0.02711681 0.0552962 0.053639088
000250 f5 f5 59 3d c2 36 26 3d e3 4d 5e bd 3b 4b bf 3c
       0.05321308 0.040579565 -0.054273497 0.023351302
000260 0c 43 28 3d 62 87 54 bb d7 26 15 3d 00 96 9c 3c
       0.041079566 -0.0032429327 0.036413994 0.019114494
000270 c0 ce 0d 3a 2a a2 1a 3d 1b 47 20 bd fd 28 5d 3d
       0.00054095313 0.037752308 -0.03913031 0.053994168
000280 98 70 43 bd 49 b6 bd bc f5 67 3e 3d 91 c1 3b 3c
       -0.0477148 -0.02315821 0.04648586 0.011459724
000290 8e 6d b4 bc 45 52 6b 3c 19 d6 40 3c c3 cf 04 3d
       -0.022024896 0.014362876 0.011769795 0.0324247
0002a0 91 94 66 bc e9 e6 1f 3c 3d 30 af 3c 32 48 09 3d
       -0.014073507 0.009759643 0.021385306 0.033516116
0002b0 9e a8 64 3d 7c f4 87 3d c5 d6 7f bb 34 ba ee bc
       0.05582487 0.066384286 -0.0039037925 -0.029141523
0002c0 78 64 95 3b 75 4d 20 3d e9 14 19 3c 76 4f 20 bd
       0.004559096 0.03913637 0.009343364 -0.03913828
0002d0 45 ec 23 bd 8c d8 fd bc 23 1b 30 bd 63 51 4c bd
       -0.040020246 -0.030987047 -0.04299463 -0.049882304
0002e0 9c bb 1c bd f4 c1 25 bd 4d 82 38 bd ec 10 23 bd
       -0.038264856 -0.04046817 -0.04504614 -0.03981106
0002f0 dc 3c 61 3d 31 65 5d 3d 8a 37 2c bd 7f 78 4a 3d
       0.05498968 0.05405158 -0.042045154 0.04943132
000300 8f 8c 89 3c c6 d6 fe 3b 43 43 15 bd b0 ac ba b9
       0.016790656 0.007777068 -0.0364411 -0.00035605347
000310 5b 59 13 bd 1b 95 1b bd 36 e5 a2 bc 5a 01 e9 bc
       -0.035973888 -0.037983995 -0.019884687 -0.028443027
000320 14 87 b0 b9 96 49 1c 3c bf 1b cb bb a1 91 13 3c
       -0.00033669977 0.009539029 -0.006198376 0.009006889
000330 5e e9 10 bd c9 2c 50 bd d9 00 2b 3d ab 63 83 3c
       -0.035378806 -0.05082396 0.041748855 0.016038736
000340 40 9b 0e 3d 14 5b f9 bc d0 91 54 37 45 c6 be bc
       0.034816027 -0.030438937 1.2670134e-05 -0.023287902
000350 fc b9 6b bd f4 37 2c 3c b5 e6 e5 bc 11 00 04 3d
       -0.057550415 0.010511387 -0.028064111 0.032226626
000360 e2 a6 6a bb 67 0f d7 3c dc 4b 0d bd ef a0 1a 3d
       -0.0035805036 0.026252462 -0.034496173 0.037751134
000370 d0 7a 04 bd a2 3f 8c 3c 3f 2f 42 bd 4b f4 50 3d
       -0.032343686 0.017120186 -0.04740834 0.051014226
000380 da e9 4f 3d 82 70 0b bd 5a 0d 53 bd 5e d7 4f 3d
       0.050760128 -0.034042843 -0.051526405 0.0507425
000390 63 7c 3a bd 27 c3 36 3c 11 bd 5f 3d 90 41 6e 3d
       -0.04552878 0.011154926 0.054623667 0.058167994
0003a0 28 e6 d6 3c 9a 7d 1d bd e8 a1 4f 3c 68 51 8e bd
       0.026232794 -0.03844986 0.012672879 -0.06949121
0003b0 8a 21 d8 bc 4f 3e 4c bc dd b7 24 3d 6d 15 42 bb
       -0.02638318 -0.012466027 0.04021441 -0.0029614822
0003c0 08 1f b7 3c a1 75 92 3c 88 35 91 bc 96 ec 71 3c
       0.022353664 0.017878355 -0.017725721 0.014765879
0003d0 e6 8c 47 bd 1f 0c 31 bd 3b 35 6b 3c 92 15 df bc
       -0.048718356 -0.04322445 0.014355953 -0.027231965
0003e0 57 e0 42 bc 16 a8 68 3d 3c 12 46 bd cc a5 81 3c
       -0.011894307 0.056800924 -0.048357233 0.015826128
0003f0 55 75 95 bc 98 b4 c3 bc 7e 0a e4 bc b6 f1 6e 3d
       -0.018244425 -0.023889825 -0.027837034 0.058335982

features.4.bias f4 [64]
000000 cb b1 5d bd 31 5d 04 3c 62 f5 17 3d 91 f3 54 3d
       -0.054124635 0.008078859 0.03709925 0.051990096
000010 b5 ee 53 bd 15 5e b7 bb 07 c0 54 bd 0c d9 05 bd
       -0.05174132 -0.0055959322 -0.051940944 -0.032677695
000020 78 d2 d3 bc ad 56 ae 3c fe 03 0b bd c4 00 d6 3b
       -0.025857195 0.021281565 -0.033939354 0.006530853
000030 44 66 2e 3c e0 11 52 3d 29 06 48 bd 47 06 83 bb
       0.010644499 0.05128658 -0.048834 -0.003998551
000040 7b d2 50 3d ad 35 24 3d cf 11 71 bc 9f e2 0f 3d
       0.05098198 0.04009025 -0.014713719 0.035128232
000050 74 ab fa bb d4 ba 27 bc 2a a1 26 bc da 1a 7b 3c
       -0.0076498333 -0.010237414 -0.01017026 0.015326226
000060 cd 93 c3 3c 43 10 19 3d c3 79 57 3d bd 12 6a 3d
       0.023874188 0.037369024 0.052606355 0.057146776
000070 f5 7f 23 3d b2 90 d7 bc c8 76 14 3d b4 7e 22 3d
       0.03991695 -0.026314113 0.03624609 0.039671615
000080 38 e6 2d 3d 60 88 a9 3b b3 bf 54 3d 1b 58 53 3d
       0.04245588 0.005173728 0.05194063 0.051597696
000090 9c a2 fe bc 79 86 14 3d b5 41 18 bd 75 76 f7 3c
       -0.031083398 0.036261056 -0.037172038 0.030207852
0000a0 fc 28 12 3c 84 aa 41 bd f3 bb d5 3c 52 1f 5d bd
       0.008920904 -0.047281757 0.026090598 -0.053984948
0000b0 55 df 26 3d 17 a4 03 bd 6b 9d 7f bc f0 8d 9c bc
       0.04074033 -0.03213891 -0.015601496 -0.01911065
0000c0 00 b3 1f 3d 31 68 4b bd e9 28 0d bd 25 88 49 3d
       0.038989067 -0.04965991 -0.034462843 0.049202103
0000d0 e7 7c 06 3c b6 cb af bc eb 5c 7f bc 7e bb 47 3d
       0.00820849 -0.021459442 -0.015586118 0.04876279
0000e0 4d 0f 0c 3d da 0a 34 bd 07 f1 2b 3d e4 70 72 bd
       0.03419428 -0.04395566 0.04197791 -0.059189692
0000f0 21 e4 b3 3c 8b dc 3b bd 49 1a 4d bb 21 0d 05 3b
       0.021959366 -0.045864623 -0.0031296185 0.0020302015

features.5.weight f4 [64]
000000 0b 44 7d 3f af 98 80 3f 06 aa 7e 3f 94 b6 7d 3f
       0.9893195 1.0046595 0.99478185 0.9910672
000010 b6 44 7e 3f 10 46 81 3f 37 e4 80 3f 32 ca 80 3f
       0.99323595 1.0099506 1.0069646 1.0061705
000020 2e c9 7d 3f 99 cb 80 3f 4f f7 7c 3f 3f f5 7c 3f
       0.991351 1.0062133 0.9881486 0.98811716
000030 2d 20 81 3f 41 ce 7d 3f 3f a1 7c 3f 7e 28 81 3f
       1.0087944 0.99142843 0.9868354 1.0090482
000040 76 98 7d 3f 14 66 80 3f 34 0a 7f 3f 9f 1a 80 3f
       0.9906076 1.0031152 0.99624944 1.0008124
000050 e6 62 7c 3f 37 61 7d 3f 51 b4 81 3f 97 f9 81 3f
       0.9858841 0.98976463 1.0133153 1.0154294
000060 35 dc 7c 3f fe bb 81 3f d8 64 80 3f 51 e0 80 3f
       0.9877351 1.0135496 1.0030775 1.0068456
000070 03 a2 81 3f 45 20 82 3f 3e 8a 81 3f f5 84 80 3f
       1.0127567 1.0166098 1.0120313 1.0040575
000080 6b 62 7f 3f c2 33 7f 3f 04 87 81 3f 26 e1 7d 3f
       0.9975955 0.9968835 1.0119328 0.99171674
000090 ee 08 7e 3f fe 47 7d 3f 00 b6 7d 3f d9 c6 7c 3f
       0.99232376 0.98937976 0.99105835 0.9874092
0000a0 61 3c 81 3f 12 b8 81 3f d8 f9 7d 3f 60 ce 80 3f
       1.0096551 1.0134299 0.99209356 1.0062981
0000b0 53 13 7d 3f f8 10 82 3f 4e 00 80 3f 90 f5 80 3f
       0.9885761 1.0161428 1.0000093 1.007494
0000c0 c4 14 80 3f 8e 4c 80 3f 80 43 7e 3f e7 5f 7d 3f
       1.0006337 1.0023363 0.99321747 0.9897446
0000d0 cc 65 7d 3f 9d 95 81 3f 6b 0f 82 3f df 22 81 3f
       0.98983455 1.0123783 1.0160955 1.0088767
0000e0 67 95 80 3f 00 58 7f 3f 7f c4 7f 3f c6 30 7e 3f
       1.0045594 0.9974365 0.99909204 0.9929317
0000f0 fc d7 7d 3f 77 3a 81 3f a1 5a 81 3f 55 f0 80 3f
       0.9915769 1.0095967 1.0105783 1.0073344

features.5.bias f4 [64]
000000 8d 33 40 bc 82 9a 59 3b 4b 2c 1a bc 7e e3 41 bc
       -0.011731041 0.0033203666 -0.009409974 -0.0118340235
000010 06 e3 59 bc 92 ef c6 3b fb 1b cf 3b 28 ac 82 3b
       -0.0132987555 0.0060710395 0.006320474 0.003987808
000020 aa 30 89 bc 3b 06 db 3a 12 47 73 bc f9 62 53 bc
       -0.016746838 0.0016710231 -0.014848487 -0.012902015
000030 a1 01 44 bb 95 cd 18 bc e4 cc 5a bc b5 34 cb 3b
       -0.0029908197 -0.009326358 -0.013354514 0.0062013515
000040 77 f0 67 bc 72 97 00 bc db c3 1f bc 04 ea 0a bc
       -0.014156452 -0.007848607 -0.009751285 -0.008478645
000050 4b 9d 4d bc 7a 8c 78 bc e4 fe 48 3c 0c 0a 5a 3c
       -0.012549709 -0.015170211 0.012267802 0.013308059
000060 b8 09 71 bc 37 2b 38 3c d5 28 1f bc 2f 77 eb ba
       -0.01471179 0.011240772 -0.009714325 -0.0017964597
000070 e2 06 32 3c e3 27 7d 3c 93 df 75 3b 8a c2 a0 bb
       0.010865899 0.015451404 0.0037517294 -0.0049060034
000080 06 5a d0 bb 92 68 f2 bb 00 ee 46 3c 70 72 3d bc
       -0.006358388 -0.0073977197 0.012141705 -0.011562929
000090 c2 0b 17 bc cc 65 5d bc 49 36 63 bc 8e dc 82 bc
       -0.009219112 -0.01351304 -0.013867923 -0.01597431
0000a0 74 ab f9 39 04 69 41 3c 3c 13 6a bc ee e9 5a bb
       0.00047620723 0.011804823 -0.014286812 -0.0033403593
0000b0 70 0d 65 bc b7 7c 5e 3c af 7c 23 bc 5d ba c0 ba
       -0.0139802545 0.013579539 -0.009978457 -0.0014703978
0000c0 d2 39 34 bc c7 d6 1a 3b e4 95 6b bc 1f 7c 2d bc
       -0.011000114 0.0023626552 -0.014378998 -0.010588675
0000d0 8a ca 3c bc 16 6a 4e 3c 65 21 4e 3c 2e 8e 2e 3c
       -0.011522898 0.012598535 0.012581204 0.0106540155
0000e0 8a e5 8b 3b da f2 22 bc ab fd db bb 40 36 32 bc
       0.0042693065 -0.009945596 -0.006713589 -0.010877192
0000f0 0a fd 56 bc 00 70 16 3c 27 79 0d 3c fd 2d b7 3b
       -0.013121853 0.009181976 0.008634842 0.005590199

features.5.running_mean f4 [64]
000000 b1 93 1c bf da 93 88 3e c4 c2 4c be f0 c1 e5 bd
       -0.6116286 0.26675302 -0.19996172 -0.11218631
000010 d8 c1 b9 bd a3 34 1a ba e4 1e 3f 3f 98 d8 8f 3e
       -0.09070176 -0.0005882477 0.7465651 0.28094935
000020 1d 2a 55 be 31 3b 09 3e fb 21 b1 be 82 a3 d9 bd
       -0.20816846 0.13401486 -0.34596238 -0.1062689
000030 37 2d fc be dc 56 cd bd 54 87 42 bc dc 96 49 be
       -0.49253246 -0.10026333 -0.011873085 -0.19686455
000040 a8 c6 14 bf 78 5d db bd e0 45 c8 be ce e1 82 3d
       -0.58115625 -0.10711187 -0.3911581 0.06390725
000050 52 b4 1a be 3f 38 cd be a0 6f 38 3f ab 6c d1 be
       -0.15107849 -0.40081975 0.72045326 -0.4090322
000060 6f b4 f6 bc 09 8d 31 3d 27 88 13 3e 33 57 c7 3e
       -0.030115334 0.043347392 0.14407407 0.38933715
000070 6d da d5 3e bc ed 1b 3f 22 5a e1 3d 41 0c c0 3e
       0.41768208 0.6090963 0.110035196 0.3750935
000080 80 a2 2b bf 83 ef f9 3e d8 45 f6 3d a8 18 9b 3d
       -0.6704483 0.48815545 0.120250404 0.07573062
000090 d4 f5 af be 56 a2 b7 bd 54 0c dc be b6 ba ca be
       -0.3436724 -0.0896651 -0.42978156 -0.39595574
0000a0 47 ca dd be 89 f6 03 bf f7 47 96 be 69 89 87 bc
       -0.43318388 -0.5154806 -0.2935178 -0.016545014
0000b0 40 30 08 be 82 02 e8 3b bb 4a d5 be 83 82 d3 be
       -0.13299656 0.007080377 -0.41658577 -0.4131051
0000c0 1e 25 38 3c 32 77 b2 3e 8a 9c 3b 3d 0e d4 e9 3a
       0.011239318 0.34856564 0.045803584 0.0017839686
0000d0 28 f9 c7 bc c6 2d a3 3e d4 69 90 be fc 5a ff 3e
       -0.0244108 0.3187086 -0.2820574 0.49874103
0000e0 1d db 30 3f 4a 19 87 be 6b c0 d7 3e f5 2e 71 bd
       0.6908434 -0.26386482 0.4213899 -0.058882672
0000f0 fc 0f 93 bd 71 c7 c9 3e 07 99 3e 3f 56 60 8a 3e
       -0.07180783 0.39409974 0.7445225 0.27026623

features.5.running_var f4 [64]
000000 c6 dd a2 3e 5b 8c 1b 3f 28 43 34 3f 08 f0 89 3e
       0.31809825 0.6076104 0.7041497 0.26940942
000010 14 d3 5f 3e c7 67 53 3e e7 15 04 3f 1c 91 02 3f
       0.21857864 0.20645057 0.5159592 0.5100267
000020 87 c8 bd 3e 27 d1 ac 3e 34 6c 35 3f dc b2 25 3f
       0.37067053 0.3375332 0.7086823 0.6472604
000030 02 da eb 3e a5 b3 22 3f 6f b5 39 3f a9 be a6 3e
       0.46064764 0.63555366 0.7254247 0.32567337
000040 f1 d6 e7 3e 97 74 6e 3e d9 26 80 3e da f7 1d 3f
       0.45281175 0.23286663 0.25029638 0.61706316
000050 6b b9 33 3f 70 20 6f 3f 4d 8f 89 3e bf 31 5c 3e
       0.702048 0.9340887 0.26867142 0.21503352
000060 95 b4 2d 3f 02 e8 5a 3e b6 d8 67 3e 19 7e 15 3f
       0.6785367 0.21377566 0.22641262 0.58395535
000070 86 b2 1a 3f 89 b5 b9 3e eb 2f 1a 3e 3e 00 0c 3f
       0.60428655 0.36271313 0.15057342 0.5468787
000080 aa eb 88 3e 8a 41 1e 3f 35 61 44 3e 21 c7 ae 3f
       0.26742297 0.61818755 0.19177707 1.3654519
000090 70 c2 d2 3e 76 cc f1 3e 8e 90 e0 3e d9 1e 4d 3f
       0.4116397 0.47226304 0.43860286 0.80125195
0000a0 17 8b c3 3e 6b 21 82 3e 25 b7 29 3f 78 94 21 3f
       0.38192055 0.2541612 0.6629508 0.6311717
0000b0 7a 94 4b 3f b3 c4 c1 3e 62 22 77 3f e3 b7 18 3f
       0.7952343 0.37845382 0.9653684 0.5965559
0000c0 c6 4e ec 3e 78 9d 5e 3e ca 79 ce 3e c8 bc 80 3e
       0.4615385 0.21739757 0.40327293 0.2514403
0000d0 a6 14 28 3f ea dc b0 3e e2 ab 5a 3e 76 9b 0a 3f
       0.65656507 0.34543544 0.2135463 0.54143465
0000e0 03 66 89 3e 59 9a 5f 3e 22 6d 2a 3f 5f 96 46 3f
       0.2683564 0.21836223 0.66572773 0.775732
0000f0 a4 9f bb 3e 25 6c f5 3e 4e 40 9e 3e 99 8e 88 3e
       0.36645234 0.4793407 0.30908436 0.26671293

fc.weight f4 [32, 64]
000000 71 67 e7 bd fb 46 8e bc 64 88 5c 3d 00 3e e9 bd
       -0.11299027 -0.01736783 0.05384101 -0.11388779
000010 14 e1 8d bc f0 2b 32 3d 3a ed df bd 1a e3 e1 3d
       -0.01731924 0.043498933 -0.10933919 0.11029644
000020 8d 1f b0 3d cb c0 e5 3d 8a 79 5f bc ff 12 4f bd
       0.08599768 0.11218413 -0.013639817 -0.050555225
000030 8d d6 ec bc f4 16 6c 3d ed ec 5a 3d 44 9a fa bd
       -0.0289109 0.057639077 0.053448606 -0.12236455
000040 12 55 2d bd 9c 5c cf bd 37 72 60 3b dd 3b 0c 3d
       -0.042317457 -0.10125086 0.0034247765 0.034236778
000050 f5 f2 08 3d ce 2f 9a 3d 44 89 c1 3d 20 ad b5 3d
       0.033434827 0.07528649 0.094500095 0.088709116
000060 83 e6 8f 3a f7 d0 95 bc da bd 6e bd 23 f3 6f 3c
       0.0010978732 -0.018288119 -0.058286525 0.014645371
000070 26 f9 02 be c5 58 62 3d eb ad e2 3d 44 ff 2a 3d
       -0.12790355 0.05526044 0.110683285 0.041747347
000080 7d f4 27 3d 46 17 92 3c 6f 33 9f bd 12 67 c3 3d
       0.041004647 0.017833363 -0.07773482 0.095411435
000090 55 0a 04 bd 99 ce bc 3d 44 91 ae 3d 9b 48 b1 3d
       -0.032236416 0.09219093 0.08523801 0.086564265
0000a0 17 45 c0 3d 51 d5 12 3d ce 70 63 bd 7a 9b 8d 3d
       0.09388178 0.035847966 -0.0555275 0.069144204
0000b0 e7 e0 fa 3b ea 2f a8 bc 09 64 b3 bd 80 8e e7 bd
       0.007656205 -0.02053066 -0.087593146 -0.113064766
0000c0 fc da 78 3c c7 0d 45 3b 65 6b dc bd 56 59 97 3d
       0.015188929 0.0030068026 -0.107626714 0.07390086
0000d0 d7 33 b5 3d b6 c1 41 3c a3 d2 5c bd 80 c7 ea bd
       0.08847778 0.011825969 -0.053911816 -0.11463833
0000e0 d7 6a 12 bd 28 60 b5 3d 6d 4a 9c bd a6 2d b4 3d
       -0.03574642 0.08856231 -0.07631383 0.08797769
0000f0 06 8e 09 be ee 4a bd bd 74 2e 3b 3d 00 bd 98 bc
       -0.13433084 -0.09242807 0.045698598 -0.01864481
000100 20 33 95 3d 4e 98 26 3d 23 92 c4 bd c8 de af 3d
       0.07285142 0.040672593 -0.09598186 0.08587414
000110 a6 e6 58 3d 2f 8a f7 bd 85 df 00 3e 1f e9 4e 3d
       0.05295434 -0.12086903 0.12585266 0.05051529
000120 35 7d 5a bd 03 11 87 3d 85 4e 78 3d 92 d3 39 bc
       -0.053342063 0.065950416 0.060621757 -0.011341946
000130 1e 96 99 bc 03 33 dd bd f1 ce 5f 3d e4 f6 e7 3d
       -0.01874834 -0.10800745 0.054640714 0.113263875
000140 59 bf bf bc 03 5e ef bd cb 14 af 3d c4 28 ee 3d
       -0.023406671 -0.11687853 0.08548888 0.11628869
000150 6a 9d ca 3d 50 b5 02 be 89 02 3d 3d 87 60 a1 3d
       0.098933056 -0.12764478 0.046144996 0.07879739
000160 32 88 96 bd f0 3b 50 bd 5e 7a a5 3d a4 7b 89 3d
       -0.07350196 -0.05083841 0.0807998 0.06713036
000170 a7 c4 2b 3d 18 80 65 bb cc 22 cc bd dd 88 db 3d
       0.04193559 -0.0035018977 -0.099675745 0.10719464
000180 5e dd ab bd 1c fb 00 bd 7a d0 28 3d 6d ba 64 bd
       -0.08391832 -0.031489477 0.041214444 -0.055841852
000190 5b b4 84 3b 73 7f 42 3d 4c 48 bc 3d 70 1d c6 3d
       0.0040498204 0.047484826 0.09193477 0.096735835
0001a0 94 68 f6 3d d4 04 ff bd 8d 9e dd bd f0 55 a9 bd
       0.120316654 -0.12452093 -0.10821257 -0.082683444
0001b0 df 17 5f bc 09 a1 93 bd c4 a0 ea bd 52 48 ab bd
       -0.013616531 -0.072084494 -0.11456445 -0.083634034
0001c0 4a d8 cf bd fd 78 85 3c e5 16 22 3c d0 1d a8 bd
       -0.10148676 0.016293043 0.009893154 -0.08208811
0001d0 a7 fe 89 bc 45 54 df 3c 21 8c e4 bd fe 4b 62 bd
       -0.01684506 0.027261863 -0.1115954 -0.055248253
0001e0 f2 4e 6a ba 90 af 0a 3d 72 f9 09 bd 65 5d e8 bb
       -0.00089381554 0.033858836 -0.033685155 -0.0070912116
0001f0 57 d8 3f bd 99 d2 03 3e f8 c5 05 3d 6f cc 59 3b
       -0.046837177 0.12873305 0.0326595 0.0033233424
000200 43 9f a9 3c b9 85 c4 3d 2f f2 ca 3d df a5 a6 bd
       0.020705825 0.09595818 0.09909474 -0.08137106
000210 7c 2b da 3a d4 b5 81 bd d3 77 4c bd 3b 76 35 bd
       0.001664504 -0.06333509 -0.04991896 -0.044302206
000220 6e 12 15 bd 87 57 83 3d 9c 9f 09 ba 84 c6 14 39
       -0.03639453 0.06413179 -0.0005249919 0.00014188333
000230 94 5a 7e 3d 0f 1e 6e 3d d1 15 a5 bc 9e a5 2f 3d
       0.0620981 0.058134135 -0.020152004 0.042882554
000240 dd 71 b5 3d 23 53 f3 3d 3d 42 c8 3d ee 5e 9e 3c
       0.08859608 0.118810914 0.09778259 0.019332375
000250 cc 10 01 bb 69 b3 cd bd 09 8e ba bc b8 b9 4d bd
       -0.001969385 -0.100439854 -0.022772806 -0.050225943
000260 0f d4 ec bd 62 63 bb 3c 65 7c f2 bd 4e d2 09 be
       -0.115638845 0.022874538 -0.118401326 -0.13459131
000270 75 b9 cd 3d e1 27 59 bc 0e 1e c2 3d 7d d4 f0 bd
       0.10045139 -0.013254137 0.09478389 -0.11759279
000280 df e5 0f 3d 4c c9 7f 3d 32 9c ce 3c 86 8c 55 3d
       0.03513133 0.06244783 0.025220964 0.052135967
000290 b4 63 89 bd 9b 81 98 bd 77 82 8b 3d a7 10 cb 3d
       -0.0670847 -0.07446595 0.068119936 0.099152856
0002a0 76 a2 47 3c 7b 49 69 bb 01 8b 5e bd c3 94 a2 3d
       0.01218473 -0.0035596776 -0.054331783 0.0793853
0002b0 50 bf b6 bd a1 a5 06 3d 96 3a dd 3c dc ba 1f bc
       -0.08923209 0.0328728 0.027005475 -0.009749141
0002c0 1b 98 a3 3d c3 72 bd 3c 84 f6 c8 bd 3a 73 4b bd
       0.07987996 0.023126012 -0.09812644 -0.049670435
0002d0 96 ff c2 bd 7f 73 d5 3b e8 6b 6a 3d 15 cb b6 bd
       -0.095214054 0.0065140123 0.057231814 -0.089254536
0002e0 72 cd bf 3d a3 34 9d bd 2a 49 ea bd a7 a4 7e bc
       0.093653575 -0.07676055 -0.11439736 -0.015542186
0002f0 0d 4b d1 3d b6 71 cb 3b dd cf b3 bd 80 eb ca ba
       0.10219393 0.0062086238 -0.08779881 -0.0015481561
000300 d7 73 a9 3c 36 d7 71 bc 0f ed aa bd b4 98 e1 ba
       0.02068512 -0.014760783 -0.083459966 -0.0017211647
000310 4e 8b 97 3d af 9b 7b 3d 6e 9a 5c bd 52 6b 24 3d
       0.07399617 0.06142777 -0.053858213 0.04014141
000320 19 6c 8e bd 23 a3 2f bd a1 5b b3 3a 93 28 94 bb
       -0.06954212 -0.04288019 0.0013683924 -0.0045214384
000330 fe c4 a8 bd 55 28 3c 3c 02 f5 e3 bc 9e 77 e0 bd
       -0.08240698 0.011484225 -0.02782679 -0.10960315
000340 cb 95 4c 3d ee 66 ad 3d a4 57 4c 3d ab ab d0 3d
       0.04994754 0.08466898 0.049888268 0.10188993
000350 76 ba 1e bd 17 ad b1 3d 0b 70 f6 bd 0f 4a 6d 3d
       -0.03875204 0.086755924 -0.12033089 0.057931956
000360 2c cb 2a 3d 5a ac 75 bd f0 25 a9 3d cf 2a a2 bd
       0.041697666 -0.05997882 0.08259189 -0.07918321
000370 2e da 83 bd 7d 4e e9 bc 4d 1e b0 3d d3 80 cf bd
       -0.06438099 -0.028479809 0.085995294 -0.10131993
000380 26 9b 75 bd 9f c7 40 3d de ba 9b 3c 5e 37 84 3d
       -0.059962414 0.047065374 0.019010004 0.06455873
000390 48 c6 ed 3d 31 ac e0 bd 02 be e1 bc 35 4a d1 3d
       0.11610085 -0.10970343 -0.027556423 0.10219232
0003a0 67 fe 8e 3c 94 f6 bb 3b 06 93 e5 3d 6f 47 bb bd
       0.017455293 0.0057361815 0.11209683 -0.09144484
0003b0 76 3b 95 3d ee c4 99 3d 15 ca 56 3c 8f b2 ab bd
       0.07286732 0.075082645 0.013109704 -0.08383667
0003c0 03 8d 47 3d 9d 8d 9f 3d 91 ac 55 3d 08 61 d8 3d
       0.048718464 0.077906825 0.052166525 0.10565382
0003d0 19 ee f8 3b 20 5f 9e 3b 29 cf 51 3d c3 d1 02 be
       0.007596743 0.004833117 0.051222954 -0.1277533
0003e0 b3 18 22 3c 65 36 96 bd c9 75 94 bb f2 6a fd bc
       0.009893584 -0.07334594 -0.0045306426 -0.030934785
0003f0 cd c0 cf 3c 09 fc 37 bb 8e 77 19 3d d1 74 9c bd
       0.02536049 -0.0028073809 0.03746753 -0.076394685

fc.bias f4 [32]
000000 1f 91 3f bd 76 07 18 bd e3 37 b3 3c a8 de 5a bd
       -0.046769258 -0.03711649 0.021877235 -0.053434998
000010 75 aa 19 bd c6 bb e2 bd 97 a7 41 3d 25 f3 aa 3d
       -0.037516076 -0.11070971 0.047278967 0.083471574
000020 a7 e8 91 bc 5f ce 90 3d 8a 43 87 3d 4d 3d e0 3d
       -0.017811133 0.07070612 0.06604679 0.10949192
000030 22 11 cc 3d 43 be e9 bd 18 c9 03 bc 03 43 0c 3d
       0.09964205 -0.11413243 -0.00804355 0.034243595
000040 44 bb 8c bd 39 14 e0 bd ca 9e 66 bd c3 2c 2c bc
       -0.068716556 -0.10941357 -0.056303777 -0.010508719
000050 0e 56 31 3d be e7 e2 bd 1b ba 9a 3d 3b 4d d0 bd
       0.04329496 -0.110793576 0.07555028 -0.101709805
000060 b2 2d b2 3d bf 0c 19 bc 97 08 53 bd 04 67 89 3d
       0.08700122 -0.009341418 -0.051521864 0.06709102
000070 75 bf a7 3d a9 4e c0 3d df 34 5c bd 9c b0 35 bd
       0.081908144 0.09390003 -0.05376136 -0.04435788
